trained_model.pth (torch, 452528 bytes, 19 tensors)

model.0.weight f4 [400, 3]
-0.460988 0.46761864 0.17532375 -0.34838712 -0.13421953 -0.508343 0.16677117 0.031350296
-0.1808027 0.2854964 -0.49948287 -0.18680538 -0.10551027 -0.30708298 -0.44619602 -0.06652261
-0.23823938 -0.38288715 -0.44643825 0.2980502 0.3635637 0.3933635 -0.24338526 0.37243673
-0.05080245 0.009943153 -0.35721385 -0.27653933 -0.46115512 0.26717508 -0.31358933 -0.5505741
-0.46414825 0.29657638 -0.51723856 0.5370272 -0.16190445 -0.108612515 -0.5517749 0.5153618
0.34711558 -0.53209895 0.30605808 0.5611804 -0.5967905 0.50676984 -0.09103352 0.055438202
0.084481254 -0.25707382 0.23157486 -0.24580792 -0.23324905 -0.33045498 0.12225711 0.50995976
0.14325692 -0.48667407 -0.31669253 0.49559435 -0.2926489 -0.12890041 -0.22668543 -0.25248766
0.09890864 -0.1300511 0.48019102 0.41720712 0.44001374 -0.24266943 0.54618216 0.30448148
0.40665025 0.08992866 -0.23264098 -0.27990624 0.38396943 -0.34476528 -0.11244513 -0.39508536
-0.101219274 0.28230223 -0.21649526 -0.1919629 0.06108065 0.11506901 0.18391655 0.23030621
-0.49839115 0.046543393 -0.45524046 0.50714296 -0.17684911 -0.3950799 -0.039128613 -0.38073257
0.48043478 -0.17084488 -0.14061314 0.25156727 0.36254796 -0.44985732 -0.36468205 -0.27370587
-0.19596013 0.12217692 -0.09166953 -0.18524683 -0.5239667 0.5070024 -0.258147 0.18906441
0.47247854 -0.18532631 -0.12975234 0.009074025 -0.2192893 0.34674305 0.48192814 -0.20987645
0.2821046 0.15503843 0.45509455 0.42122024 -0.43010524 0.49863303 0.013584917 -0.37418243
-0.3641949 -0.3250598 -0.3389685 0.47176 0.3722008 0.036421914 0.4006964 0.0018333244
0.5501939 -0.52351594 0.2138426 0.12752858 -0.42824054 0.51085865 0.4301278 0.019382406
0.563384 -0.34353814 0.14853695 -0.23217641 0.55972064 0.47047845 -0.5740278 -0.2881425
-0.14123519 -0.021820912 0.28622633 -0.2124058 0.09581434 -0.31872374 -0.18466595 0.12749003
0.26410994 0.21491262 -0.40829864 0.6282985 0.5713536 -0.18426038 0.56980336 -0.08667121
0.40590358 -0.32541743 -0.33118907 0.13560143 -0.0018935031 0.29222992 0.32737166 0.010034347
-0.39059553 0.09022645 0.46128854 0.2140858 -0.09953023 -0.045110237 -0.36283442 -0.011059022
-0.4282263 0.113932796 0.36385146 -0.4936365 -0.12140993 0.053713977 -0.47572422 -0.54836756
-0.1370672 0.52254224 0.31612095 -0.038457587 0.2547773 0.56240195 -0.30887625 0.21680278
-0.35915872 -0.29879358 0.583021 -0.109839186 0.024634471 0.53919125 -0.4822345 0.11357146
-0.40848026 0.17702872 0.012917853 0.18446855 -0.1382521 0.08545263 0.10277282 0.0015383367
0.046776365 0.07508836 -0.4135001 -0.3812595 0.6104486 -0.54980034 0.2396859 0.0872941
0.07965864 0.5830807 -0.04157405 0.33443713 -0.5595128 -0.51349235 -0.36952996 0.6475645
0.44622904 -0.488972 0.0052069253 -0.44116983 0.36576176 -0.45161065 -0.4076542 -0.5549618
0.007393159 0.57401764 0.20065613 -0.18477573 -0.5259569 -0.1827451 0.29458153 -0.42131814
-0.48304218 -0.32164955 -0.11136327 0.38620657 0.42559722 -0.15348448 -0.011033419 0.059326768
00000000: 9e06 ecbe b66b ef3e 1288 333e cc5f b2be
00000010: d870 09be c422 02bf 10c6 2a3e 2b69 003d
00000020: 5824 39be 962c 923e 38bc ffbe e949 3fbe
00000030: c515 d8bd fb39 9dbe ce73 e4be 023d 88bd
00000040: 06f5 73be c909 c4be 8e93 e4be 099a 983e
00000050: 0525 ba3e f166 c93e fc39 79be 07b0 be3e
00000060: 3b16 50bd 9be8 223c bce4 b6be 9096 8dbe
00000070: 861c ecbe 2ccb 883e c88e a0be 6df2 0cbf
00000080: d7a4 edbe dcd8 973e bf69 04bf 9d7a 093f
00000090: 48ca 25be 3d70 debd 1f41 0dbf c0ee 033f
000000a0: 22b9 b13e a337 08bf a5b3 9c3e 85a9 0f3f
000000b0: 43c7 18bf abbb 013f c86f babd 2b13 633d
000000c0: 8204 ad3d 2e9f 83be f621 6d3e 12b5 7bbe
000000d0: d7d8 6ebe 6531 a9be f061 fa3d b98c 023f
000000e0: f1b1 123e 582d f9be 8625 a2be 8bbe fd3e
000000f0: 14d6 95be 78fe 03be 3a20 68be 1046 81be
00000100: 9d90 ca3d 1e2c 05be 99db f53e 2c9c d53e
00000110: 7b49 e13e 567e 78be 98d2 0b3f ffe4 9b3e
00000120: 7634 d03e 842c b83d 7039 6ebe df4f 8fbe
00000130: a497 c43e 1385 b0be a249 e6bd a148 cabe
00000140: 0d4c cfbd eb89 903e efb0 5dbe ec91 44be
00000150: b42f 7a3d 4da9 eb3d 9f54 3c3e 64d5 6b3e
00000160: 202d ffbe 49a4 3e3d 4715 e9be 1fd4 013f
00000170: ef17 35be ea47 cabe 5345 20bd 61ef c2be
00000180: 8cfb f53e f6f1 2ebe e4fc 0fbe 6dcd 803e
00000190: e39f b93e b353 e6be 9bb7 babe 2d23 8cbe
000001a0: c6a9 48be e537 fa3d 3cbd bbbd 58b1 3dbe
000001b0: af22 06bf e9ca 013f d82b 84be 1a9a 413e
000001c0: b5e8 f13e 2ec6 3dbe ccdd 04be 38ab 143c
000001d0: 608d 60be 4e88 b13e 49bf f63e dae9 56be
000001e0: 0470 903e 65c2 1e3e 2702 e93e 2eaa d73e
000001f0: c136 dcbe d44c ff3e 4693 5e3c d794 bfbe
00000200: c177 babe 3d6e a6be 478d adbe 878a f13e
00000210: 1a91 be3e 252f 153d 1428 cd3e 294c f03a
00000220: 82d9 0c3f 2405 06bf 8ef9 5a3e da96 023e
00000230: 5842 dbbe a2c7 023f b639 dc3e dac7 9e3c
00000240: ef39 103f 3be4 afbe 121a 183e a7bf 6dbe
00000250: da49 0f3f 8de2 f03e 7cf3 12bf 6a87 93be
00000260: f59f 10be c5c1 b2bc 428c 923e e880 59be
00000270: 4f3a c43d c22f a3be 1219 3dbe bf8c 023e
00000280: 6b39 873e 0e12 5c3e 850c d1be 2cd8 203f
00000290: 3b44 123f c1ae 3cbe a2de 113f ad80 b1bd
000002a0: 98d2 cf3e 1d9d a6be 9d91 a9be 1adb 0a3e
000002b0: 6c2f f8ba 299f 953e 429d a73e 1a67 243c
000002c0: 23fc c7be a5c8 b83d 032e ec3e 4f39 5b3e
000002d0: 81d6 cbbd 83c5 38bd 6fc5 b9be e630 35bc
000002e0: 7a40 dbbe 9955 e93d bd4a ba3e ecbd fcbe
000002f0: c5a5 f8bd 3003 5c3d 2092 f3be d161 0cbf
00000300: 585b 0cbe 54c5 053f 9bda a13e b485 1dbd
00000310: 2c72 823e 93f9 0f3f 0725 9ebe 8c01 5e3e
00000320: a7e3 b7be 79fb 98be dd40 153f 5ef3 e0bd
00000330: 3bce c93c 7008 0a3f 71e7 f6be 2798 e83d
00000340: 5324 d1be 0447 353e 67a5 533c 53e5 3c3e
00000350: f591 0dbe ca01 af3d 8e7a d23d 04a2 c93a
00000360: 9398 3f3d edc7 993d 49b6 d3be 7234 c3be
00000370: 5c46 1c3f b7bf 0cbf 3870 753e 40c7 b23d
00000380: 1224 a33d c744 153f 8d49 2abd 583b ab3e
00000390: 3b3c 0fbf 3c74 03bf 0833 bdbe c9c6 253f
000003a0: 2278 e43e 8a5a fabe db9e aa3b 03e1 e1be
000003b0: 2045 bb3e 8339 e7be 0db8 d0be fa11 0ebf
000003c0: 5042 f23b d2f2 123f cd78 4d3e d935 3dbe
000003d0: 1da5 06bf 8821 3bbe 64d3 963e 03b7 d7be
000003e0: 4e51 f7be 40af a4be 6d12 e4bd debc c53e
000003f0: e1e7 d93e 092b 1dbe 83c5 34bc a000 733d

model.0.bias f4 [400]
-0.06635967 0.31935638 0.113262504 -0.16843462 -0.46206608 0.3169146 0.50150967 0.12938546
-0.30331424 -0.19825444 -0.34572095 -0.5602397 -0.07263274 -0.26405755 -0.17033096 0.040516376
0.43008617 0.48108345 -0.21776679 0.39879122 -0.21970329 0.07217952 0.45875353 0.42777544
0.1489738 -0.058456685 -0.46692076 -0.25792065 -0.23570026 -0.45045412 -0.096052356 -0.1345121
0.36861417 0.30861568 0.33076993 -0.26191893 -0.36068347 -0.53710073 -0.049039487 -0.3080728
0.30439663 0.22836272 0.3765899 0.21152142 -0.1918507 -0.33444414 -0.26773918 -0.027556315
-0.41689885 0.113890454 0.35051706 -0.21432589 -0.0972073 0.43472308 0.07667329 -0.11190465
-0.13139816 0.18439898 0.43686327 -0.3284285 0.19875646 0.025936963 -0.12083799 -0.37534958
0.37300554 -0.1776709 -0.12048601 0.26547757 0.052637376 -0.39463118 -0.5464611 0.559867
0.25188795 -0.40576482 -0.6061343 0.10651865 0.029930495 0.24805875 -0.07506806 0.34830302
0.34354326 0.51518136 -0.16829097 0.092112996 0.17868046 -0.45630613 0.24814124 -0.074999094
-0.22611466 -0.17532708 0.24172987 -0.37302667 -0.263734 0.21923907 0.12755983 0.4069667
0.20771901 0.3743583 0.21805066 -0.17951429 0.26080126 -0.25246057 0.26343268 0.11353897
0.15254101 0.40625244 0.29999822 -0.1254246 -0.30002025 -0.17836834 -0.5735737 0.14938127
-0.57113963 -0.29895106 -0.47729915 0.42944878 -0.38196832 -0.0031484116 -0.44569603 -0.38463166
0.3813246 -0.0029153111 -0.45290142 0.28242153 0.4745197 -0.41287097 0.10959656 0.29649356
0.34283394 0.5537322 0.1757836 0.16395435 -0.20562531 -0.014433415 0.54908544 -0.312288
0.14066704 0.18721104 0.41728672 -0.102240644 0.47997522 0.5207185 0.22320493 0.43910575
0.32277328 0.6957202 -0.20092955 0.061368447 -0.22091599 0.43162677 -0.34254035 -0.43217027
-0.4202762 0.04227427 -0.40151972 0.24502933 0.26847312 0.2176932 0.43056658 0.22430456
-0.18538153 0.2661755 0.54507446 -0.44356808 0.13897559 0.3546935 -0.14536354 0.20983124
0.37666452 -0.041222766 -0.3602843 -0.16862603 0.07343303 -0.3034974 0.16967297 0.62812823
0.094688766 0.21038839 -0.11364971 0.49471545 0.5218913 0.38456246 -0.61860746 0.32889766
0.29281643 0.54195935 -0.4004618 0.5036132 -0.512427 -0.5637303 -0.34792647 -0.26481822
-0.3009214 0.369058 -0.0970245 0.28575066 0.16656476 0.45285112 0.16761641 -0.54610544
-0.20411582 -0.16855675 -0.030902073 0.018023448 -0.09978926 0.37315452 0.14321606 0.32254595
-0.19776556 -0.38370198 -0.4476785 0.25718662 -0.115775116 -0.054358665 0.19462837 -0.5078754
-0.4691375 -0.12390731 0.3891062 0.27539456 -0.30930212 0.10920779 -0.50432265 -0.30677715
-0.028139248 0.061825063 -0.40642157 -0.5325495 0.52602136 -0.33047354 0.03620665 -0.4292537
-0.21356568 0.36946005 -0.089277886 0.3422047 -0.12939599 -0.52949804 0.05127047 0.062142774
-0.038622145 -0.24876921 -0.41882524 0.15352046 0.5164716 -0.43066823 -0.10842032 -0.3913324
0.45209968 -0.5763892 -0.5708162 -0.21479197 -0.042306837 0.41689613 -0.3924994 -0.24165234
00000000: 94e7 87bd ae82 a33e 2cf6 e73d 207a 2cbe
00000010: ed93 ecbe a142 a23e f062 003f 9f7d 043e
00000020: 014c 9bbe 3603 4bbe 5602 b1be de6b 0fbf
00000030: 79c0 94bd 8d32 87be 3d6b 2ebe 80f4 253d
00000040: 4134 dc3e 9250 f63e 42fe 5ebe 5d2e cc3e
00000050: e6f9 60be dbd2 933d bee1 ea3e 6205 db3e
00000060: 968c 183e 4770 6fbd 3d10 efbe 2d0e 84be
00000070: 695b 71be eca1 e6be 19b7 c4bd 8abd 09be
00000080: ffba bc3e e002 9e3e ad5a a93e 3d1a 86be
00000090: 81ab b8be 6f7f 09bf a1dd 48bd b8bb 9dbe
000000a0: e0d9 9b3e ebd7 693e 64d0 c03e 1299 583e
000000b0: 8374 44be 433c abbe 1c15 89be c8bd e1bc
000000c0: c473 d5be 663f e93d f976 b33e 3f78 5bbe
000000d0: 9f14 c7bd 0694 de3e e306 9d3d 442e e5bd
000000e0: 3d8d 06be 16d3 3c3e 8bac df3e c827 a8be
000000f0: d086 4b3e c179 d43c e879 f7bd d22d c0be
00000100: 95fa be3e 5cef 35be 5fc1 f6bd adec 873e
00000110: 4a9a 573d 190d cabe e0e4 0bbf 7253 0f3f
00000120: 75f7 803e 68c0 cfbe 9e2b 1bbf 7326 da3d
00000130: cc30 f53c 1d03 7e3e 48bd 99bd c654 b23e
00000140: e7e4 af3e ede2 033f 7854 2cbe bda5 bc3d
00000150: 03f8 363e f5a0 e9be bd18 7e3e 2099 99bd
00000160: 9a8a 67be f188 33be 0988 773e 5afd bebe
00000170: 2508 87be 3580 603e 0b9f 023e f05d d03e
00000180: 4bb4 543e e4ab bf3e ac48 5f3e 98d2 37be
00000190: be87 853e 8342 81be a6e0 863e 1f87 e83d
000001a0: b633 1c3e 5200 d03e 5e99 993e 4e6f 00be
000001b0: 419c 99be 31a6 36be bad5 12bf 67f7 183e
000001c0: 3536 12bf 1d10 99be 8e60 f4be b6e0 db3e
000001d0: 5a91 c3be 9555 4ebb 4532 e4be 71ee c4be
000001e0: fa3c c33e ce0e 3fbb b2e2 e7be 8e99 903e
000001f0: 3ff4 f23e d363 d3be 2974 e03d 01ce 973e
00000200: ee87 af3e 65c1 0d3f 9e00 343e a6e3 273e
00000210: 718f 52be 217a 6cbc dd90 0c3f 36e4 9fbe
00000220: 050b 103e 40b4 3f3e 9ba6 d53e 8b63 d1bd
00000230: 50bf f53e cf4d 053f d58f 643e 78d2 e03e
00000240: 8a42 a53e b81a 323f 7ac0 4dbe 7b5d 7b3d
00000250: cd37 62be 2ffe dc3e 7361 afbe 6c45 ddbe
00000260: 712e d7be c927 2d3d fe93 cdbe f8e8 7a3e
00000270: 4f75 893e f7ea 5e3e 3973 dc3e 18b0 653e
00000280: a8d4 3dbe 2848 883e 008a 0b3f 5b1b e3be
00000290: 9e4f 0e3e 639a b53e 2eda 14be 00de 563e
000002a0: 2cda c03e 34d9 28bd 2f77 b8be 4dac 2cbe
000002b0: 0e64 963d 0364 9bbe c0be 2d3e 03cd 203f
000002c0: 2fec c13d 0e70 573e 2ec1 e8bd 584b fd3e
000002d0: ab9a 053f 5fe5 c43e 0f5d 1ebf 4665 a83e
000002e0: 09ec 953e d9bd 0a3f 5409 cdbe cbec 003f
000002f0: 6a2e 03bf a150 10bf 6b23 b2be 4196 87be
00000300: 5f12 9abe 2cf5 bc3e c8b4 c6bd e94d 923e
00000310: f48f 2a3e 1adc e73e a3a3 2b3e 91cd 0bbf
00000320: bd03 51be 249a 2cbe 5826 fdbc e9a5 933c
00000330: 505e ccbd 1c0e bf3e 3ba7 123e be24 a53e
00000340: 0e83 4abe 9674 c4be 1e36 e5be f7ad 833e
00000350: 811b edbd 31a7 5ebd a94c 473e 1f04 02bf
00000360: ca32 f0be 1ec3 fdbd ee38 c73e 8400 8d3e
00000370: d95c 9ebe 55a8 df3d 4a1b 01bf e511 9dbe
00000380: 4884 e6bc 473c 7d3d 7d16 d0be 2a55 08bf
00000390: 56a9 063f d433 a9be 6d4d 143d 24c7 dbbe
000003a0: f6b0 5abe de29 bd3e 53d7 b6bd 7435 af3e
000003b0: 6280 04be 2f8d 07bf fc00 523d 6c89 7e3d
000003c0: 4132 1ebd 5bbd 7ebe 4370 d6be 7834 1d3e
000003d0: 7c37 043f 8c80 dcbe 790b debd b85c c8be
000003e0: 9c79 e73e 3e8e 13bf 0321 12bf 6df2 5bbe
000003f0: ef49 2dbd 6973 d53e aef5 c8be b673 77be

model.2.weight f4 [400]
0.6930986 1.0 1.0 1.0 1.0 1.0 0.64319956 0.8344347
1.0 1.0 1.0 1.0 1.0 1.0 0.9897427 0.997342
1.0 1.0 0.64213246 0.909341 1.0 1.0091598 0.6679489 0.65777415
1.0 0.94297904 1.0 1.0 0.6719977 1.0 0.8250948 1.0
1.0 1.017207 1.0 1.0 0.8549352 0.80998707 1.0 0.8370661
0.6941948 0.8867338 1.0 0.88405514 0.7368052 1.3715394 1.0 0.75432086
1.0 0.628435 1.0 0.87541616 1.0 0.6997443 0.7380257 0.7561716
1.0 0.69030225 1.0 0.799077 1.0 1.0 1.0 1.0
0.7604646 0.65014017 1.0 0.74663174 1.1022696 1.0 0.8611888 0.6492826
1.0 0.98386383 0.8106437 0.78693014 1.0 0.9005619 1.0 1.0
0.7634927 1.0 1.0 0.82909095 1.0 1.0 1.0 0.7560416
1.0 1.0 1.0 0.64027846 1.0 1.0 1.0 0.71885324
0.6024793 1.0 1.0 1.0 0.9963836 0.7646801 0.78534865 1.0
1.0 0.7211534 1.0 1.0 0.6911466 1.0 0.62400365 0.8603811
0.6846405 1.0 1.0 1.0 1.0 0.70390147 0.90234566 1.0
1.0 1.0 1.0277656 0.824649 1.0 1.0 0.7833197 1.0
1.0 1.0 0.7506947 1.0 0.7040424 0.7064019 1.0 1.0
1.0 1.0 0.7295963 1.0 0.7456189 0.7220924 0.7164752 0.6084036
0.7138312 0.63778514 0.8513015 0.6680372 0.71094453 0.7740931 0.69392836 1.0
1.0 0.7899697 0.5975318 0.7612014 0.60334456 0.7058038 0.7499083 1.0
0.5498322 1.0 0.6615412 0.62420505 0.6323771 0.6317118 1.0 0.746191
0.72739935 1.0 1.0 1.0 0.6311393 0.6769963 0.6058108 0.77115256
1.0 0.6043231 1.0 0.8078427 1.0 0.7312372 0.72657365 1.0
1.0 0.6830384 1.0 1.0 0.7358363 1.0 1.0 1.0
1.1451379 0.74907124 1.0 0.6609144 1.0 0.6664901 0.9439479 1.0
1.0 0.69060165 0.7218175 0.7648658 1.2479314 1.0 0.8242596 1.0
0.66027653 1.0 1.0 0.7310314 1.0 1.0 1.0 1.0
1.0 0.9262387 1.0 0.681471 0.7887525 1.0 1.0 0.95418197
0.6147971 1.0 1.2196968 0.7764821 1.0 1.0 0.9448654 0.69859236
0.66524875 1.0 0.7707264 0.6781605 0.78334284 1.0 0.7223494 0.6502727
0.7011834 1.0 0.7688123 1.0 1.0 0.6733728 0.7442359 1.0
0.6988454 0.68080467 1.0 1.0 1.0 0.77907974 1.0 0.75652474
00000000: e96e 313f 0000 803f 0000 803f 0000 803f
00000010: 0000 803f 0000 803f baa8 243f 839d 553f
00000020: 0000 803f 0000 803f 0000 803f 0000 803f
00000030: 0000 803f 0000 803f c75f 7d3f ce51 7f3f
00000040: 0000 803f 0000 803f cb62 243f 92ca 683f
00000050: 0000 803f 262c 813f b3fe 2a3f e363 283f
00000060: 0000 803f 1367 713f 0000 803f 0000 803f
00000070: 0b08 2c3f 0000 803f 6a39 533f 0000 803f
00000080: 0000 803f d733 823f 0000 803f 0000 803f
00000090: 09dd 5a3f 505b 4f3f 0000 803f f749 563f
000000a0: c0b6 313f fc00 633f 0000 803f 7051 623f
000000b0: 449f 3c3f 9a8e af3f 0000 803f 2c1b 413f
000000c0: 0000 803f 1ee1 203f 0000 803f 461b 603f
000000d0: 0000 803f 7122 333f 41ef 3c3f 7694 413f
000000e0: 0000 803f a6b7 303f 0000 803f 4f90 4c3f
000000f0: 0000 803f 0000 803f 0000 803f 0000 803f
00000100: cfad 423f 966f 263f 0000 803f 4223 3f3f
00000110: 2c17 8d3f 0000 803f df76 5c3f 6237 263f
00000120: 0000 803f 80de 7b3f 5886 4f3f 4174 493f
00000130: 0000 803f 3a8b 663f 0000 803f 0000 803f
00000140: 4274 433f 0000 803f 0000 803f 4e3f 543f
00000150: 0000 803f 0000 803f 0000 803f f18b 413f
00000160: 0000 803f 0000 803f 0000 803f 4ae9 233f
00000170: 0000 803f 0000 803f 0000 803f c406 383f
00000180: 153c 1a3f 0000 803f 0000 803f 0000 803f
00000190: ff12 7f3f 13c2 433f 9c0c 493f 0000 803f
000001a0: 0000 803f 829d 383f 0000 803f 0000 803f
000001b0: fcee 303f 0000 803f b4be 1f3f f041 5c3f
000001c0: 9a44 2f3f 0000 803f 0000 803f 0000 803f
000001d0: 0000 803f e332 343f 2000 673f 0000 803f
000001e0: 0000 803f 0000 803f d38d 833f 321c 533f
000001f0: 0000 803f 0000 803f a487 483f 0000 803f
00000200: 0000 803f 0000 803f 872d 403f 0000 803f
00000210: 1f3c 343f c1d6 343f 0000 803f 0000 803f
00000220: 0000 803f 0000 803f d3c6 3a3f 0000 803f
00000230: e1e0 3e3f 0cdb 383f eb6a 373f 57c0 1b3f
00000240: a4bd 363f e345 233f e5ee 593f 7c04 2b3f
00000250: 7600 363f f72a 463f 4aa5 313f 0000 803f
00000260: 0000 803f 743b 4a3f d8f7 183f 18de 423f
00000270: ca74 1a3f 8faf 343f fef9 3f3f 0000 803f
00000280: cec1 0c3f 0000 803f c45a 293f e7cb 1f3f
00000290: 77e3 213f ddb7 213f 0000 803f 6006 3f3f
000002a0: d836 3a3f 0000 803f 0000 803f 0000 803f
000002b0: 5892 213f a14f 2d3f 6b16 1b3f 416a 453f
000002c0: 0000 803f ebb4 1a3f 0000 803f c7ce 4e3f
000002d0: 0000 803f 5c32 3b3f bb00 3a3f 0000 803f
000002e0: 0000 803f 9bdb 2e3f 0000 803f 0000 803f
000002f0: c55f 3c3f 0000 803f 0000 803f 0000 803f
00000300: e193 923f 22c3 3f3f 0000 803f b031 293f
00000310: 0000 803f 189f 2a3f 92a6 713f 0000 803f
00000320: 0000 803f 45cb 303f 08c9 383f 3fce 433f
00000330: 37bc 9f3f 0000 803f ad02 533f 0000 803f
00000340: e207 293f 0000 803f 0000 803f e024 3b3f
00000350: 0000 803f 0000 803f 0000 803f 0000 803f
00000360: 0000 803f fb1d 6d3f 0000 803f e274 2e3f
00000370: afeb 493f 0000 803f 0000 803f 4545 743f
00000380: 5863 1d3f 0000 803f 061f 9c3f 88c7 463f
00000390: 0000 803f 0000 803f b3e2 713f f3d6 323f
000003a0: be4d 2a3f 0000 803f 534e 453f ed9b 2d3f
000003b0: 2889 483f 0000 803f e4eb 383f 4678 263f
000003c0: c180 333f 0000 803f e2d0 443f 0000 803f
000003d0: 0000 803f 2962 2c3f 3e86 3e3f 0000 803f
000003e0: 88e7 323f 3749 2e3f 0000 803f 0000 803f
000003f0: 0000 803f c571 473f 0000 803f 9bab 413f

model.2.bias f4 [400]
-0.05605336 0.0824863 -0.077372536 0.06162166 -0.037516374 -0.07315135 -0.034949943 0.046079945
0.075290024 -0.09147625 -0.065647 0.06271879 0.07272872 -0.07293673 0.08810939 0.008522557
-0.0791303 -0.06860313 -0.005989009 -0.15660194 0.05863292 -0.0012110218 -0.056271497 -0.03129897
0.090795964 -0.023030503 0.08057085 0.07140069 -0.05724213 -0.05441034 -0.0482047 0.092762336
0.0693156 0.0042367796 0.077323854 0.078470565 -0.04196657 0.003543638 -0.086386226 0.011597502
-0.064743675 0.102156356 -0.058949415 -0.086809985 -0.00283482 0.03753031 0.09383465 0.019008366
0.091107644 -0.049277056 0.06827078 0.0013457132 -0.080253705 -0.029694255 -0.017126614 -0.00041984045
0.076648034 -0.020603267 0.085076615 -0.035525378 0.0930792 0.08907942 -0.075277254 -0.08229972
-0.010354042 -0.093868405 0.07862353 -0.05594889 0.06268719 -0.08076706 0.019522475 -0.023411125
-0.08358777 -0.050827533 -0.00047543147 0.0056345947 -0.0441141 0.19010758 -0.058894802 -0.080598444
-0.0288004 -0.08340676 -0.09766107 -0.1883162 0.077563606 0.09051395 -0.07423364 -0.08766183
-0.0916333 -0.091599114 -0.069913946 -0.028934175 0.060111474 0.10794225 -0.07563451 -0.11133753
-0.023803819 0.07844443 -0.081789 0.069385484 -0.0011279919 0.005486322 0.06574051 0.075607225
0.07656584 -0.01555155 0.09212661 0.082733646 -0.05291911 0.06561309 -0.03650086 0.13439056
-0.01783755 -0.049795177 0.09178939 0.08929121 0.07356673 -0.08051725 0.069584 0.07773171
0.06325617 -0.079004034 0.002339895 0.0112140095 0.093634285 0.05647681 -0.021183554 0.058187786
-0.059186894 0.084687345 -0.047070254 0.06675946 -0.093204066 -0.1629326 0.07849967 -0.07511435
0.06953513 -0.066850804 -0.03176518 0.061879124 -0.008892351 -0.028311111 -0.0821602 -0.05606955
-0.06065151 -0.020484593 0.19991812 -0.10388247 -0.06911811 -0.04819775 0.0054536304 0.062752135
0.07159005 -0.10442721 -0.022364778 -0.09176296 -0.05891669 -0.03294311 -0.06397768 0.08774867
-0.06527798 0.061905112 0.035483044 -0.036655515 -0.0028555081 -0.011713332 -0.06857161 -0.022102285
-0.103071034 -0.07655146 0.08899789 -0.08084593 -0.035521794 -0.008796446 -0.020226339 0.006547075
0.06536094 -0.06989441 0.09834137 0.03650233 0.08766963 -0.027626676 -0.023746328 0.079343826
-0.090312265 -0.046179205 -0.06359035 -0.062404092 -0.040920515 -0.104448035 -0.07043938 0.09541108
0.045919016 -0.14239512 0.09983383 -0.061681177 0.07172579 -0.038778603 -0.022878654 0.08488589
-0.06531182 -0.13623038 -0.03640308 -0.09484438 0.052374158 0.07268685 -0.052046943 0.038146615
-0.06795575 -0.05624271 -0.07269384 -0.066841796 -0.06813256 0.066081345 -0.0735396 -0.06698218
0.07950746 -0.010834222 0.09246596 0.040554143 -0.014691696 0.060326293 0.0809729 -0.038081817
-0.020809127 -0.09130336 0.046063617 -0.059712462 -0.09169173 0.08846381 -0.016085899 -0.078023
0.0144513 0.06408881 -0.12413523 -0.08367899 0.0069693485 0.065440245 0.051085442 -0.032670747
-0.055579495 -0.08123722 -0.030251265 0.064206086 0.06632424 -0.051553145 0.0648424 -0.058086757
-0.00068824214 -0.04107123 0.08863743 0.07863614 -0.0726032 0.009340627 -0.06684201 -0.03040683
00000000: 3598 65bd 94ee a83d 7e75 9ebd fe66 7c3d
00000010: c5aa 19bd 60d0 95bd ac27 0fbd 53be 3c3d
00000020: a831 9a3d e657 bbbd ef71 86bd b572 803d
00000030: ccf2 943d da5f 95bd b272 b43d 32a2 0b3c
00000040: 110f a2bd cc7f 8cbd 733f c4bb 425c 20be
00000050: 1329 703d 26bb 9eba f17c 66bd 5933 00bd
00000060: 3cf3 b93d 77aa bcbc 5402 a53d 863a 923d
00000070: b976 6abd 60dd 5ebd 4b72 45bd 2efa bd3d
00000080: 56f5 8d3d afd4 8a3b f85b 9e3d 2db5 a03d
00000090: 23e5 2bbd 613c 683b 43eb b0bd 7303 3e3c
000000a0: 5598 84bd 5a37 d13d f174 71bd 6fc9 b1bd
000000b0: 63c8 39bb 62b9 193d 622c c03d 6fb7 9b3c
000000c0: a596 ba3d bdd6 49bd 8dd1 8b3d a462 b03a
000000d0: 0e5c a4bd 5e41 f3bc 1d4d 8cbc 081e dcb9
000000e0: a5f9 9c3d 2fc8 a8bc a63c ae3d 0f83 11bd
000000f0: 4fa0 be3d 456f b63d f62a 9abd c18c a8bd
00000100: 00a4 29bc 143e c0bd 6005 a13d aa2a 65bd
00000110: 2462 803d 3369 a5bd 99ed 9f3c b0c8 bfbc
00000120: 1130 abbd 8830 50bd 5543 f9b9 68a2 b83b
00000130: fdb0 34bd 90ab 423e ad3b 71bd cc10 a5bd
00000140: d1ee ebbc 2ad1 aabd 8702 c8bd f6d5 40be
00000150: abd9 9e3d 615f b93d cf07 98bd 0c88 b3bd
00000160: 3daa bbbd 5198 bbbd 0b2f 8fbd 5d07 edbc
00000170: 7337 763d d410 dd3d 44e6 9abd ee04 e4bd
00000180: 3a00 c3bc 79a7 a03d fe80 a7bd fa19 8e3d
00000190: 21d9 93ba 9bc6 b33b f6a2 863d f6d7 9a3d
000001a0: 8dce 9c3d eecb 7ebc e0ac bc3d 4270 a93d
000001b0: b5c1 58bd 2860 863d ed81 15bd ae9d 093e
000001c0: 0e20 92bc 07f6 4bbd 13fc bb3d 4fde b63d
000001d0: 27aa 963d 3ae6 a4bd 0e82 8e3d ce31 9f3d
000001e0: 738c 813d decc a1bd ed58 193b f7ba 373c
000001f0: 55c3 bf3d 3a54 673d 2289 adbc 5156 6e3d
00000200: f56d 72bd 8f70 ad3d bdcc 40bd 2fb9 883d
00000210: c6e1 bebd ced7 26be 6fc4 a03d 8dd5 99bd
00000220: 6f68 8e3d 13e9 88bd 351c 02bd f774 7d3d
00000230: 39b1 11bc b4ec e7bc 9b43 a8bd 2fa9 65bd
00000240: b86d 78bd 4ecf a7bc 56b7 4c3e 55c0 d4bd
00000250: cc8d 8dbd 016b 45bd 5eb4 b23b 3184 803d
00000260: ce9d 923d efdd d5bd 5736 b7bc 38ee bbbd
00000270: a152 71bd 5bef 06bd bb06 83bd 93b5 b33d
00000280: 76b0 85bd 3790 7d3d ab56 113d 1824 16bd
00000290: 7a23 3bbb 46e9 3fbc 466f 8cbd da0f b5bc
000002a0: e816 d3bd 03c7 9cbd 8744 b63d 8d92 a5bd
000002b0: 4d7f 11bd f81e 10bc b5b1 a5bc d988 d63b
000002c0: f5db 853d cd24 8fbd 3367 c93d 7883 153d
000002d0: 238c b33d 5751 e2bc a987 c2bc 047f a23d
000002e0: a3f5 b8bd 6826 3dbd a83b 82bd 6f9b 7fbd
000002f0: 459c 27bd dae8 d5bd 8642 90bd e266 c33d
00000300: 9415 3c3d 07d0 11be ae75 cc3d 67a5 7cbd
00000310: f9e4 923d 50d6 1ebd 046c bbbc a7d8 ad3d
00000320: 34c2 85bd fa7f 0bbe 651b 15bd c53d c2bd
00000330: 4986 563d d8dc 943d 2d2f 55bd a03f 1c3d
00000340: 622c 8bbd c25e 66bd 82e0 94bd 5ae4 88bd
00000350: 1589 8bbd a855 873d ee9b 96bd f42d 89bd
00000360: cfd4 a23d 0582 31bc cb5e bd3d 1a1c 263d
00000370: 70b5 70bc b418 773d 1fd5 a53d aefb 1bbd
00000380: e777 aabc 42fd babd 34ad 3c3d 0e95 74bd
00000390: e0c8 bbbd 842c b53d 93c6 83bc 86ca 9fbd
000003a0: 25c5 6c3c fe40 833d 9d3a febd e45f abbd
000003b0: 225f e43b 8905 863d f83e 513d c3d1 05bd
000003c0: 53a7 63bd b35f a6bd 80d1 f7bc 7b7e 833d
000003d0: 01d5 873d 6429 53bd 18cc 843d 61ec 6dbd
000003e0: 266b 34ba 4e3a 28bd 8a87 b53d fc0b a13d
000003f0: fdb0 94bd 6e09 193c 77e4 88bd bf17 f9bc

model.2.running_mean f4 [400]
10.224558 0.0 0.0 0.0 0.0 0.0 10.836441 1.9269633
0.0 0.0 0.0 0.0 0.0 0.0 0.27310425 6e-45
0.0 0.0 10.54551 2.4272459 0.0 6e-45 14.383732 14.097988
0.0 0.97650355 0.0 0.0 4.5292606 0.0 5.518218 0.0
0.0 6e-45 0.0 0.0 3.9749942 4.6467204 0.0 4.7378616
9.978436 0.8271464 0.0 1.5870553 6.7093673 0.8867677 0.0 7.7242503
0.0 16.54144 0.0 1.3344179 0.0 8.190157 19.121662 8.030902
0.0 4.675414 0.0 10.69368 0.0 0.0 0.0 0.0
13.881312 12.635245 0.0 8.215456 1.7515855 0.0 0.44966733 2.3543172
0.0 1.244783 2.1928442 4.7913933 0.0 0.57783186 0.0 0.0
13.010834 0.0 0.0 3.964146 0.0 0.0 0.0 10.37569
0.0 0.0 0.0 16.687435 0.0 0.0 0.0 6.005261
6.1776204 0.0 0.0 0.0 6e-45 7.579287 3.5668619 0.0
0.0 16.45422 0.0 0.0 7.210986 0.0 4.4723287 2.5682929
10.016913 0.0 0.0 0.0 0.0 6.2152486 1.6603287 0.0
0.0 0.0 6e-45 5.829838 0.0 0.0 5.553 0.0
0.0 0.0 4.4489274 0.0 8.205298 6.786797 0.0 0.0
0.0 0.0 11.03195 0.0 6.6340322 5.838532 1.1673323 3.9027324
4.794301 8.76773 2.280006 9.566714 7.4992924 4.720027 8.835695 0.0
0.0 3.3626673 9.935004 11.715116 13.585348 8.189826 8.423173 0.0
1.7472612 0.0 5.968734 9.952215 7.715662 6.0538483 0.0 2.3938084
6.3556175 0.0 0.0 0.0 5.418081 15.293225 4.1228094 4.438999
0.0 8.060116 0.0 5.3117743 0.0 11.997929 9.67175 0.0
0.0 14.813028 0.0 0.0 12.191374 0.0 0.0 0.0
1.2216973 5.2332373 0.0 9.583924 0.0 8.54443 6e-45 0.0
0.0 3.855201 8.914255 7.910147 1.577043 0.0 4.9702797 0.0
16.223572 0.0 0.0 11.698552 0.0 0.0 0.0 0.0
0.0 2.0116239 0.0 9.399886 5.336294 0.0 0.0 1.6562542
8.130074 0.0 1.3626494 14.160259 0.0 0.0 6e-45 5.6310806
6.3352113 0.0 5.1250067 7.3481464 9.3690605 0.0 2.9041712 10.394505
7.6359544 0.0 4.9474726 0.0 0.0 11.829726 1.474547 0.0
6.020612 6.6872435 0.0 0.0 0.0 9.171301 0.0 6.8605947
00000000: ca97 2341 0000 0000 0000 0000 0000 0000
00000010: 0000 0000 0000 0000 1062 2d41 bca6 f63f
00000020: 0000 0000 0000 0000 0000 0000 0000 0000
00000030: 0000 0000 0000 0000 52d4 8b3e 0400 0000
00000040: 0000 0000 0000 0000 69ba 2841 ff57 1b40
00000050: 0000 0000 0400 0000 c423 6641 5c91 6141
00000060: 0000 0000 23fc 793f 0000 0000 0000 0000
00000070: b4ef 9040 0000 0000 3e95 b040 0000 0000
00000080: 0000 0000 0400 0000 0000 0000 0000 0000
00000090: 4e66 7e40 efb1 9440 0000 0000 909c 9740
000000a0: ada7 1f41 debf 533f 0000 0000 a124 cb3f
000000b0: 23b3 d640 3503 633f 0000 0000 0f2d f740
000000c0: 0000 0000 de54 8441 0000 0000 35ce aa3f
000000d0: 0000 0000 e20a 0341 2af9 9841 937e 0041
000000e0: 0000 0000 fe9c 9540 0000 0000 5019 2b41
000000f0: 0000 0000 0000 0000 0000 0000 0000 0000
00000100: db19 5e41 f729 4a41 0000 0000 8272 0341
00000110: f433 e03f 0000 0000 cc3a e63e 22ad 1640
00000120: 0000 0000 0d55 9f3f 8f57 0c40 1853 9940
00000130: 0000 0000 caec 133f 0000 0000 0000 0000
00000140: 602c 5041 0000 0000 0000 0000 91b4 7d40
00000150: 0000 0000 0000 0000 0000 0000 d402 2641
00000160: 0000 0000 0000 0000 0000 0000 de7f 8541
00000170: 0000 0000 0000 0000 0000 0000 192b c040
00000180: 11af c540 0000 0000 0000 0000 0000 0000
00000190: 0400 0000 8589 f240 7747 6440 0000 0000
000001a0: 0000 0000 3ea2 8341 0000 0000 0000 0000
000001b0: 66c0 e640 0000 0000 511d 8f40 e95e 2440
000001c0: 4745 2041 0000 0000 0000 0000 0000 0000
000001d0: 0000 0000 51e3 c640 a785 d43f 0000 0000
000001e0: 0000 0000 0000 0000 0400 0000 088e ba40
000001f0: 0000 0000 0000 0000 2db2 b140 0000 0000
00000200: 0000 0000 0000 0000 9d5d 8e40 0000 0000
00000210: e748 0341 712d d940 0000 0000 0000 0000
00000220: 0000 0000 0000 0000 de82 3041 0000 0000
00000230: fe49 d440 41d5 ba40 256b 953f 5ec6 7940
00000240: ea6a 9940 9f48 0c41 9eeb 1140 4311 1941
00000250: 34fa ef40 760a 9740 025f 0d41 0000 0000
00000260: 0000 0000 f135 5740 c7f5 1e41 1d71 3b41
00000270: 965d 5941 8709 0341 51c5 0641 0000 0000
00000280: 41a6 df3f 0000 0000 deff be40 463c 1f41
00000290: b4e6 f640 20b9 c140 0000 0000 2834 1940
000002a0: 3861 cb40 0000 0000 0000 0000 0000 0000
000002b0: eb60 ad40 0db1 7441 0eee 8340 480c 8e40
000002c0: 0000 0000 3cf6 0041 0000 0000 0efa a940
000002d0: 0000 0000 84f7 3f41 7dbf 1a41 0000 0000
000002e0: 0000 0000 2a02 6d41 0000 0000 0000 0000
000002f0: de0f 4341 0000 0000 0000 0000 0000 0000
00000300: 9460 9c3f ae76 a740 0000 0000 c157 1941
00000310: 0000 0000 fcb5 0841 0400 0000 0000 0000
00000320: 0000 0000 9dbb 7640 caa0 0e41 ed1f fd40
00000330: 8cdc c93f 0000 0000 880c 9f40 0000 0000
00000340: e0c9 8141 0000 0000 0000 0000 452d 3b41
00000350: 0000 0000 0000 0000 0000 0000 0000 0000
00000360: 0000 0000 72be 0040 0000 0000 ef65 1641
00000370: ecc2 aa40 0000 0000 0000 0000 2300 d43f
00000380: c814 0241 0000 0000 4c6b ae3f 6c90 6241
00000390: 0000 0000 0000 0000 0400 0000 d031 b440
000003a0: 0dba ca40 0000 0000 0e00 a440 0424 eb40
000003b0: ace7 1541 0000 0000 f1dd 3940 e44f 2641
000003c0: bd59 f440 0000 0000 b251 9e40 0000 0000
000003d0: 0000 0000 8f46 3d41 f5bd bc3f 0000 0000
000003e0: daa8 c040 e6fd d540 0000 0000 0000 0000
000003f0: 0000 0000 a6bd 1241 0000 0000 fe89 db40

model.2.running_var f4 [400]
0.4394076 6e-45 6e-45 6e-45 6e-45 6e-45 0.47867176 0.027197214
6e-45 6e-45 6e-45 6e-45 6e-45 6e-45 0.008727526 6e-45
6e-45 6e-45 0.43447384 0.053375382 6e-45 6e-45 0.7781529 0.75806195
6e-45 0.0033569694 6e-45 6e-45 0.09561556 6e-45 0.11411133 6e-45
6e-45 6e-45 6e-45 6e-45 0.06793451 0.0771562 6e-45 0.07081907
0.40387732 0.015050221 6e-45 0.030463431 0.21329306 0.00014616332 6e-45 0.20876956
6e-45 1.1210111 6e-45 0.003942851 6e-45 0.24016064 1.532295 0.23206253
6e-45 0.09401497 6e-45 0.47050497 6e-45 6e-45 6e-45 6e-45
0.7361701 0.7194129 6e-45 0.2239165 0.0010635133 6e-45 0.0015307139 0.011111899
6e-45 0.0064372495 0.03090694 0.10632765 6e-45 0.02101471 6e-45 6e-45
0.6163956 6e-45 6e-45 0.09340656 6e-45 6e-45 6e-45 0.4667178
6e-45 6e-45 6e-45 1.2527479 6e-45 6e-45 6e-45 0.19714811
0.14662649 6e-45 6e-45 6e-45 6e-45 0.24136758 0.058355164 6e-45
6e-45 1.003194 6e-45 6e-45 0.27919963 6e-45 0.0923618 0.022005958
0.43216082 6e-45 6e-45 6e-45 6e-45 0.16192818 0.007272081 6e-45
6e-45 6e-45 6e-45 0.12507296 6e-45 6e-45 0.0865089 6e-45
6e-45 6e-45 0.04688794 6e-45 0.2927307 0.19875479 6e-45 6e-45
6e-45 6e-45 0.5011797 6e-45 0.1117291 0.1261497 0.0071482314 0.07601452
0.12052772 0.3265595 0.017316723 0.3975793 0.23435485 0.05146238 0.31244436 6e-45
6e-45 0.06307488 0.430399 0.5496559 0.70557964 0.22492549 0.22151674 6e-45
0.017729506 6e-45 0.121839345 0.46094948 0.23720454 0.11486982 6e-45 0.017606612
0.20387083 6e-45 6e-45 6e-45 0.16730718 0.95460737 0.07019633 0.035747956
6e-45 0.284853 6e-45 0.09626746 6e-45 0.49008036 0.39955541 6e-45
6e-45 0.82918596 6e-45 6e-45 0.65565974 6e-45 6e-45 6e-45
0.0010655136 0.14154823 6e-45 0.37974373 6e-45 0.3249855 6e-45 6e-45
6e-45 0.092451826 0.3047498 0.33007753 0.0012393753 6e-45 0.06900883 6e-45
1.1248769 6e-45 6e-45 0.6171169 6e-45 6e-45 6e-45 6e-45
6e-45 0.009433127 6e-45 0.30216518 0.095886506 6e-45 6e-45 0.004294986
0.24082135 6e-45 0.0011731216 0.95883125 6e-45 6e-45 6e-45 0.16277662
0.19717473 6e-45 0.119876735 0.23784198 0.33180505 6e-45 0.04407952 0.44994888
0.23644157 6e-45 0.099592604 6e-45 6e-45 0.64785314 0.0029857205 6e-45
0.11951447 0.17879863 6e-45 6e-45 6e-45 0.2754636 6e-45 0.21901985
00000000: 08fa e03e 0400 0000 0400 0000 0400 0000
00000010: 0400 0000 0400 0000 7714 f53e b1cc de3c
00000020: 0400 0000 0400 0000 0400 0000 0400 0000
00000030: 0400 0000 0400 0000 e6fd 0e3c 0400 0000
00000040: 0400 0000 0400 0000 5b73 de3e 25a0 5a3d
00000050: 0400 0000 0400 0000 0735 473f 5910 423f
00000060: 0400 0000 9a00 5c3b 0400 0000 0400 0000
00000070: 17d2 c33d 0400 0000 33b3 e93d 0400 0000
00000080: 0400 0000 0400 0000 0400 0000 0400 0000
00000090: 4021 8b3d 1204 9e3d 0400 0000 9709 913d
000000a0: 02c9 ce3e 3495 763c 0400 0000 728e f93c
000000b0: 7f69 5a3e 6b43 1939 0400 0000 b0c7 553e
000000c0: 0400 0000 4b7d 8f3f 0400 0000 0833 813b
000000d0: 0400 0000 acec 753e 3e22 c43f cda1 6d3e
000000e0: 0400 0000 ec8a c03d 0400 0000 07e6 f03e
000000f0: 0400 0000 0400 0000 0400 0000 0400 0000
00000100: a575 3c3f 722b 383f 0400 0000 5e4a 653e
00000110: 9665 8b3a 0400 0000 3ca2 c83a af0e 363c
00000120: 0400 0000 90ef d23b 8d30 fd3c 50c2 d93d
00000130: 0400 0000 0b27 ac3c 0400 0000 0400 0000
00000140: 1acc 1d3f 0400 0000 0400 0000 f04b bf3d
00000150: 0400 0000 0400 0000 0400 0000 a3f5 ee3e
00000160: 0400 0000 0400 0000 0400 0000 0b5a a03f
00000170: 0400 0000 0400 0000 0400 0000 32e1 493e
00000180: 4125 163e 0400 0000 0400 0000 0400 0000
00000190: 0400 0000 1029 773e d305 6f3d 0400 0000
000001a0: 0400 0000 a968 803f 0400 0000 0400 0000
000001b0: 41f3 8e3e 0400 0000 2f28 bd3d d745 b43c
000001c0: 2f44 dd3e 0400 0000 0400 0000 0400 0000
000001d0: 0400 0000 80d0 253e a34a ee3b 0400 0000
000001e0: 0400 0000 0400 0000 0400 0000 2013 003e
000001f0: 0400 0000 0400 0000 942b b13d 0400 0000
00000200: 0400 0000 0400 0000 920d 403d 0400 0000
00000210: cce0 953e 6086 4b3e 0400 0000 0400 0000
00000220: 0400 0000 0400 0000 504d 003f 0400 0000
00000230: 3ad2 e43d 632d 013e b63b ea3b 80ad 9b3d
00000240: 3dd7 f63d cf32 a73e cddb 8d3c 848f cb3e
00000250: b8fa 6f3e 37ca 523d b5f8 9f3e 0400 0000
00000260: 0400 0000 672d 813d 425d dc3e 40b6 0c3f
00000270: dea0 343f de52 663e 49d5 623e 0400 0000
00000280: 783d 913c 0400 0000 e886 f93d 9201 ec3e
00000290: bfe5 723e de40 eb3d 0400 0000 be3b 903c
000002a0: 84c3 503e 0400 0000 0400 0000 0400 0000
000002b0: 9352 2b3e 2661 743f 18c3 8f3d 736c 123d
000002c0: 0400 0000 41d8 913e 0400 0000 e027 c53d
000002d0: 0400 0000 d0eb fa3e 8792 cc3e 0400 0000
000002e0: 0400 0000 8845 543f 0400 0000 0400 0000
000002f0: 51d9 273f 0400 0000 0400 0000 0400 0000
00000300: b4a8 8b3a 05f2 103e 0400 0000 c56d c23e
00000310: 0400 0000 8064 a63e 0400 0000 0400 0000
00000320: 0400 0000 6257 bd3d 2a08 9c3e ecff a83e
00000330: 8972 a23a 0400 0000 8054 8d3d 0400 0000
00000340: f7fb 8f3f 0400 0000 0400 0000 60fb 1d3f
00000350: 0400 0000 0400 0000 0400 0000 0400 0000
00000360: 0400 0000 678d 1a3c 0400 0000 65b5 9a3e
00000370: 2560 c43d 0400 0000 0400 0000 f4bc 8c3b
00000380: df99 763e 0400 0000 6ec3 993a f775 753f
00000390: 0400 0000 0400 0000 0400 0000 eaae 263e
000003a0: 2ce8 493e 0400 0000 ef81 f53d d98c 733e
000003b0: 5ae2 a93e 0400 0000 ba8c 343d b35f e63e
000003c0: bd1d 723e 0400 0000 35f7 cb3d 0400 0000
000003d0: 0400 0000 b4d9 253f 14ac 433b 0400 0000
000003e0: 01c4 f43d fd16 373e 0400 0000 0400 0000
000003f0: 0400 0000 9109 8d3e 0400 0000 bd46 603e

model.3.weight f4 [200, 400]
0.06016802 -0.052204106 0.062129386 -0.10388053 0.011700343 0.07932237 0.08038654 -0.03656922
-0.035284203 0.102958046 0.09873732 -0.05300823 -0.118342474 0.11596813 -0.040736225 0.012701937
0.06535071 0.0858304 0.07183281 0.10324105 -0.1095023 -0.018590424 0.008768284 0.014730206
-0.10654613 0.07306807 -0.03192549 -0.110854425 -0.0012076339 0.011585983 0.06272114 -0.09565632
-0.048671994 0.0052465824 -0.080777004 -0.09390471 0.023624731 -0.00305768 0.058691803 0.0045160633
0.051889807 -0.018304301 0.029095383 0.04699441 0.061347254 0.10671716 -0.10053114 0.03141388
-0.12425956 0.0058747586 -0.098057665 0.046984386 0.11716511 0.08064799 0.0485918 0.09572546
-0.10872876 -0.011275981 -0.08919703 0.085529745 -0.067423485 -0.09448331 0.10556621 0.10679364
0.050551027 0.009228213 -0.09910683 0.07429876 0.05279693 0.019830525 0.09219863 0.046401624
0.10795099 0.07656591 0.05008562 -0.026073761 0.024586717 -0.12816271 0.109965764 0.09068206
0.036747314 0.09191065 0.10641788 0.024488362 -0.07366649 -0.07360295 0.08817619 0.008878799
0.121362895 0.043272786 0.12325016 0.014130067 -0.07536556 -0.08301323 0.05067887 0.039959274
0.003043343 -0.056134135 0.048710585 -0.07437577 0.0017499828 0.030584851 -0.011914312 -0.11734369
-0.026529927 0.037236158 -0.11291286 -0.09300954 0.07236518 -0.05023964 0.007900097 -0.07250019
0.0086874645 0.044723414 -0.0822552 -0.10925592 -0.09794328 0.03193806 0.007107227 -0.06595755
-0.019105151 0.09406011 0.028551208 -0.040328473 -0.063206956 -0.09050649 0.063475564 -0.045670185
0.0018821844 -0.09170877 0.06929775 -0.047481474 0.08191817 0.11071749 -0.094666265 0.0904705
-0.043316875 0.10460781 0.006739981 -0.07129968 0.01944959 -0.031855885 0.032416377 0.053941265
0.08200571 0.016145505 -0.041002706 -0.004289721 0.06340425 0.028970536 0.08153299 -0.089603424
-0.113734335 0.08367582 -0.012036624 0.05008219 0.049769968 0.03647273 0.0222935 -0.095084324
-0.008686413 -0.032872338 -0.03706044 0.052100077 0.021102233 0.044597965 0.046933062 -0.035748325
0.079178825 0.020865276 -0.12569349 0.08274897 0.047516778 0.010432068 -0.036166437 0.01197675
-0.10931225 0.0019884862 -0.08774422 0.0020414814 -0.09266445 0.009541246 0.074611776 -0.042797472
0.114627436 0.076432355 0.024936069 0.03209167 0.06538786 0.09372176 0.034656942 -0.04699741
0.12970443 0.08740327 -0.034243867 0.061054815 -0.11912653 0.02259478 0.046964023 -0.11437282
0.110816546 0.0562744 0.054493595 0.01297313 0.07171398 -0.03862152 0.019849997 -0.09623514
0.017756615 0.005935138 0.10899991 0.02290938 0.1020586 -0.043669596 0.065703794 0.055362638
-0.047259267 0.14327772 -0.10660495 0.035175007 0.0009221342 -0.071084306 -0.12050732 0.13818191
0.062359065 0.06857543 0.07760239 0.074308135 0.07127906 -0.11772552 0.0077183126 0.022676293
0.004470366 -0.030270617 0.057953753 0.059577163 0.012550782 -0.09589891 -0.04967239 0.019587511
0.063207574 0.118166715 -0.019952925 -0.009976411 -0.04617673 0.015213616 0.0055894777 0.078685865
0.025175894 -0.005958081 -0.033784382 -0.052844074 0.10711934 0.052603077 0.08392413 0.036308236
00000000: be72 763d f9d3 55bd 627b 7e3d 51bf d4bd
00000010: ccb2 3f3c c473 a23d b3a1 a43d 9bc9 15bd
00000020: 2b86 10bd abdb d23d cb36 ca3d 281f 59bd
00000030: 8a5d f2bd b380 ed3d 07db 26bd c91b 503c
00000040: 98d6 853d d9c7 af3d 151d 933d 0b70 d33d
00000050: be42 e0bd f24a 98bc d9a8 0f3c f656 713c
00000060: db34 dabd b6a4 953d 4dc4 02bd a507 e3bd
00000070: 7849 9eba 23d3 3d3c f173 803d 76e7 c3bd
00000080: 495c 47bd 86eb ab3b 6a6e a5bd 1d51 c0bd
00000090: a788 c13c 5c63 48bb d166 703d 7cfb 933b
000000a0: 688a 543d e7f2 95bc 7159 ee3c 367d 403d
000000b0: 4247 7b3d 878e da3d 45e3 cdbd d7ab 003d
000000c0: cc7b febd 0c81 c03b 75d2 c8bd b372 403d
000000d0: 43f4 ef3d c62a a53d 3208 473d b60b c43d
000000e0: 2fad debd e4be 38bc efac b6bd 382a af3d
000000f0: 5315 8abd 7780 c1bd 1933 d83d a0b6 da3d
00000100: 980e 4f3d ee31 173c 86f8 cabd f329 983d
00000110: 9841 583d a073 a23c a3d2 bc3d a10f 3e3d
00000120: 6915 dd3d 96ce 9c3d 9426 4d3d a498 d5bc
00000130: 156a c93c 163d 03be bb35 e13d 84b7 b93d
00000140: 5a84 163d a73b bc3d 9ef1 d93d d19b c83c
00000150: 75de 96bd 25bd 96bd b895 b43d 6278 113c
00000160: 1c8d f83d ce3e 313d 946a fc3d cc81 673c
00000170: 4259 9abd d702 aabd a694 4f3d 56ac 233d
00000180: d372 473b e8ec 65bd c084 473d 5352 98bd
00000190: ae5f e53a 158d fa3c 3f34 43bc e351 f0bd
000001a0: 4a55 d9bc f184 183d dc3e e7bd c97b bebd
000001b0: 3234 943d 15c8 4dbd 696f 013c fb7a 94bd
000001c0: de55 0e3c e62f 373d 6a75 a8bd 91c1 dfbd
000001d0: 7d96 c8bd 7cd1 023d bee3 e83b c114 87bd
000001e0: 6882 9cbc 96a2 c03d 39e4 e93c 782f 25bd
000001f0: a672 81bd 775b b9bd 7aff 813d a910 3bbd
00000200: a1b3 f63a cfd1 bbbd fbeb 8d3d ef7b 42bd
00000210: b7c4 a73d dabf e23d 63e0 c1bd 9948 b93d
00000220: 096d 31bd 9f3c d63d 0fdb dc3b 9105 92bd
00000230: bf54 9f3c 517b 02bd 09c7 043d 84f1 5c3d
00000240: 9cf2 a73d 9443 843c 74f2 27bd ca90 8cbb
00000250: 16da 813d 9e53 ed3c c5fa a63d 0082 b7bd
00000260: 8ced e8bd 3a5e ab3d 4335 45bc fc22 4d3d
00000270: 98db 4b3d 6e64 153d dca0 b63c 92bb c2bd
00000280: 7551 0ebc 25a5 06bd b0cc 17bd e466 553d
00000290: 97de ac3c 5bac 363d e23c 403d d66c 12bd
000002a0: 8228 a23d a8ed aa3c cbb5 00be 4b78 a93d
000002b0: f4a0 423d 44eb 2a3c 4223 14bd 213a 443c
000002c0: 1adf dfbd 4351 023b 3eb3 b3bd 60ca 053b
000002d0: dcc6 bdbd e352 1c3c 0fce 983d 674c 2fbd
000002e0: cac1 ea3d 9188 9c3d ba46 cc3c 8e72 033d
000002f0: 12ea 853d 32f1 bf3d 70f4 0d3d 5b80 40bd
00000300: 3dd1 043e 7c00 b33d 4c43 0cbd 9d14 7a3d
00000310: 9cf8 f3bd b018 b93c 595d 403d 4c3c eabd
00000320: c9f3 e23d fc7f 663d ad34 5f3d 408d 543c
00000330: c7de 923d 9931 1ebd 769c a23c ee16 c5bd
00000340: 5276 913c 8c7b c23b 583b df3d 74ac bb3c
00000350: 1904 d13d e4de 32bd b68f 863d efc3 623d
00000360: ef92 41bd 65b7 123e b253 dabd ab13 103d
00000370: 61bb 713a a694 91bd 8bcc f6bd 8f7f 0d3e
00000380: 386c 7f3d 4671 8c3d 00ee 9e3d dd2e 983d
00000390: c1fa 913d 141a f1bd e6e9 fc3b a2c3 b93c
000003a0: 267c 923b 16fa f7bc ea60 6d3d 2f07 743d
000003b0: cca1 4d3c a666 c4bd 4775 4bbd fd75 a03c
000003c0: f972 813d 6401 f23d 5174 a3bc 1a74 23bc
000003d0: d023 3dbd 8842 793c f027 b73b 0e26 a13d
000003e0: ad3d ce3c 023c c3bb 7e61 0abd 0773 58bd
000003f0: 6261 db3d 5376 573d 6ae0 ab3d f2b7 143d

model.3.bias f4 [200]
-0.06444083 -0.088349834 0.012900864 -0.0059197773 -0.016285038 -0.06316752 0.010440057 0.051882945
0.100495204 0.026596813 0.024360105 0.015370805 0.008290819 -0.065441325 -0.08396798 -0.15934722
0.0035322097 -0.0940324 -0.008907161 -0.12942557 -0.016292604 -0.107694075 0.029153433 -0.15969276
-0.09157952 -0.07281439 -0.0016002263 -0.07199822 -0.008786663 -0.05256641 0.058442038 -0.10347995
-0.06522296 -0.15894128 -0.027140077 0.067348674 -0.076574855 -0.077447 0.1536155 0.01765553
0.0096655665 -0.058945984 0.008140263 -0.0499537 -0.067226484 0.09840778 -0.015781278 -0.04533246
-0.045744773 0.027448647 0.0662902 0.18407843 -0.023938665 -0.07986936 0.07932933 -0.050822712
0.005434486 0.03419446 -0.02752213 -0.056028612 -0.13458514 0.050038524 -0.071972385 -0.04362757
-0.021744085 -0.08960538 -0.054743305 -0.13768955 -0.07265037 0.044001106 0.12067069 -0.009041951
-0.06093329 -0.050979897 -0.08648759 -0.05718252 -0.11218551 0.039924145 -0.019045845 -0.024934655
-0.0049141226 -0.118208274 -0.35805178 0.11717378 -0.039578937 -0.058281224 -0.023632158 0.10760339
-0.11523909 0.07197076 0.050109822 0.096958056 -0.011462049 -0.086347505 0.10002959 -0.07305827
-0.29579258 -0.07291636 -0.13104145 -0.054168522 0.16151191 -0.021523507 -0.03567692 -0.08200812
-0.05110583 -0.10963441 -0.17353018 -0.11335393 -0.0017967721 0.043440424 0.06668535 0.004840061
0.017176412 -0.0153250275 -0.1126735 0.032989826 -0.008039904 -0.062131055 -0.019748904 0.02692965
-0.013572621 -0.05323324 -0.048073955 -0.08039023 -0.1647021 -0.19398439 0.06199587 -0.0033159691
0.0071161473 -0.10699806 0.026719132 0.002181113 0.06392196 0.028785052 0.15122654 -0.021557441
-0.01883662 -0.14237411 0.0640856 -0.055813633 -0.054385893 -0.23197103 -0.0713552 -0.040656906
-0.029231118 0.029540347 -0.042130046 0.11034732 -0.08419058 -0.110827655 -0.08997555 -0.08222071
0.1454849 -0.024743607 -0.09755361 -0.06175375 0.0063333083 -0.10121544 0.08855355 0.010624443
-0.06600701 -0.03548876 0.11284503 -0.0771711 0.114536636 0.13296407 0.09112289 -0.084046535
-0.067386955 0.08349454 0.023293883 -0.07994264 -0.05103646 -0.06839205 -0.005226744 -0.031789973
0.09802662 -0.090789214 -0.013681427 0.011569946 -0.09210972 -0.09661548 -0.04283055 -0.0064336136
-0.12534486 0.059647307 -0.14550433 -0.042233296 0.08110223 0.08231687 -0.03201838 -0.17209049
-0.20234057 0.11071851 -0.083060645 0.056691337 0.041523937 -0.1263576 0.02020514 -0.03981842
00000000: 8ef9 83bd c2f0 b4bd 255e 533c b1fa c1bb
00000010: 3368 85bc f95d 81bd c60c 2b3c 3683 543d
00000020: 6ed0 cd3d 8fe1 d93c d88e c73c d4d5 7b3c
00000030: 37d6 073c 1a06 86bd 68f7 abbd eb2b 23be
00000040: a57c 673b 0f94 c0bd 57ef 11bc 2388 04be
00000050: 1178 85bc b68e dcbd 2ed3 ee3c 8086 23be
00000060: 0b8e bbbd b61f 95bd afbe d1ba ce73 93bd
00000070: f0f5 0fbc e04f 57bd eb60 6f3d 4ced d3bd
00000080: 9e93 85bd 81c1 22be de54 debc 1aee 893d
00000090: 47d3 9cbd 889c 9ebd 624d 1d3e 54a2 903c
000000a0: 535c 1e3c 5871 71bd bd5e 053c 409c 4cbd
000000b0: 0aae 89bd 058a c93d bd47 81bc 88ae 39bd
000000c0: df5e 3bbd fcdb e03c 28c3 873d 0e7f 3c3e
000000d0: 051b c4bc 8c92 a3bd 6a77 a23d 7a2b 50bd
000000e0: c613 b23b 7d0f 0c3d 1776 e1bc 427e 65bd
000000f0: b0d0 09be 32f5 4c3d 4266 93bd d3b2 32bd
00000100: a720 b2bc 0783 b7bd 843a 60bd 7dfe 0cbe
00000110: b8c9 94bd 813a 343d 3222 f73d b124 14bc
00000120: 2f95 79bd 4cd0 50bd 6820 b1bd 3838 6abd
00000130: 84c1 e5bd 8087 233d 0806 9cbc c343 ccbc
00000140: a606 a1bb 2e17 f2bd 9052 b7be cff8 ef3d
00000150: 861d 22bd 4bb8 6ebd 3a98 c1bc 2b5f dc3d
00000160: 7902 ecbd 6865 933d f53f 4d3d f291 c63d
00000170: 51cb 3bbc f6d6 b0bd 50dc cc3d 939f 95bd
00000180: 2072 97be 2c55 95bd bb2f 06be d0df 5dbd
00000190: 6163 253e 1152 b0bc f621 12bd e0f3 a7bd
000001a0: 5954 51bd 0188 e0bd e5b1 31be 1b26 e8bd
000001b0: ab81 ebba 96ee 313d 5492 883d 6099 9e3b
000001c0: 8cb5 8c3c d315 7bbc 5dc1 e6bd 5720 073d
000001d0: cdb9 03bc 227d 7ebd 74c8 a1bc 929b dc3c
000001e0: b35f 5ebc 190b 5abd 32e9 44bd a2a3 a4bd
000001f0: aba7 28be d8a3 46be 62ef 7d3d bb50 59bb
00000200: 922e e93b cd21 dbbd 15e2 da3c 01f1 0e3b
00000210: 84e9 823d a1ce eb3c 21db 1a3e 3b99 b0bc
00000220: 414f 9abc 85ca 11be 503f 833d d69c 64bd
00000230: bec3 5ebd d089 6dbe ad22 92bd db87 26bd
00000240: 1976 efbc 99fe f13c 8e90 2cbd c7fd e13d
00000250: 1c6c acbd 9cf9 e2bd 1a45 b8bd 5563 a8bd
00000260: fef9 143e 1bb3 cabc 30ca c7bd 80f1 7cbd
00000270: a487 cf3b 0a4a cfbd 905b b53d 2512 2e3c
00000280: af2e 87bd a95c 11bd 4c1b e73d e20b 9ebd
00000290: 2f92 ea3d bc27 083e a39e ba3d 9720 acbd
000002a0: 2c02 8abd 2fff aa3d d0d2 be3c f8b8 a3bd
000002b0: 9b0b 51bd 2211 8cbd 1b45 abbb 3436 02bd
000002c0: 2ec2 c83d b2ef b9bd 1028 60bc df8f 3d3c
000002d0: 05a4 bcbd 56de c5bd 166f 2fbd 10d1 d2bb
000002e0: 675a 00be bc50 743d 16ff 14be d2fc 2cbd
000002f0: ed18 a63d bf95 a83d b425 03bd 7d38 30be
00000300: 5e32 4fbe 63c0 e23d b31b aabd 2d35 683d
00000310: 0115 2a3d e363 01be 4085 a53c a418 23bd
