trained_model.pth (torch, 352541 bytes, 31 tensors)

0.weight f4 [64, 2]
0.5777733 0.14295512 0.41852283 -0.6105918 -0.6278947 -0.021425182 0.24608736 0.20014465
0.23270488 0.3506248 0.0013402094 0.6190789 0.081706636 0.25704 -0.20625529 0.64255947
0.38510594 0.40657482 0.07931481 0.02433257 0.3238638 0.617701 -0.6181524 0.032362737
-0.08767522 -0.12681952 -0.5356461 -0.24340412 -0.58753884 -0.14919427 -0.44091603 -0.4919557
0.38349196 0.6314723 0.68733954 -0.45912996 0.09370576 0.7053728 0.61174935 -0.17393194
-0.29135466 0.15975776 0.21052283 0.6437869 -0.516433 0.36779758 0.6970751 0.24243085
0.079107024 -0.572841 -0.4125615 0.15960567 0.21820569 0.33018568 -0.043395154 -0.5978388
-0.51811033 -0.58314735 0.06411724 -0.57002884 0.6627586 0.355013 -0.080586545 -0.4534748
-0.4912704 0.6672487 0.3165326 0.22364248 0.6613121 -0.08453385 -0.104790024 0.1793194
-0.40488183 -0.20906076 -0.23118506 0.57506466 0.5941536 -0.24744312 0.69772136 -0.41360557
0.6578147 -0.2715454 0.40510032 -0.35602733 0.25238815 -0.2438319 0.3543147 0.29391742
-0.56767327 -0.48963872 -0.58452344 -0.070854664 -0.037521146 -0.62906295 0.1877809 -0.38788596
-0.07783554 -0.39876252 -0.101980284 -0.108772166 -0.63915735 0.011789465 -0.4347861 -0.6672552
-0.63527536 -0.068248056 -0.5672758 -0.55692947 -0.2080616 0.3443959 0.6754136 0.5369392
0.5334751 -0.37992474 -0.15311976 -0.09997586 -0.27412915 0.66188025 0.37329254 -0.2339526
0.13569717 -0.10715853 0.4521063 -0.41602564 0.34388188 -0.5690509 -0.3485949 0.3734633
00000000: f3e8 133f d462 123e a048 d63e bf4f 1cbf
00000010: b5bd 20bf dd83 afbc 53fe 7b3e b8f2 4c3e
00000020: 304a 6e3e 1885 b33e f7a9 af3a f47b 1e3f
00000030: cf55 a73d bf9a 833e 9634 53be c77e 243f
00000040: 9b2c c53e 932a d03e ce6f a23d 1955 c73c
00000050: 7ad1 a53e a721 1e3f 3c3f 1ebf ca8e 043d
00000060: 118f b3bd fadc 01be 1a20 09bf ee3e 79be
00000070: f268 16bf 62c6 18be bfbf e1be 9ee1 fbbe
00000080: 0f59 c43e 2ba8 213f 7cf5 2f3f 1513 ebbe
00000090: cee8 bf3d 5093 343f 9b9b 1c3f 371b 32be
000000a0: 702c 95be 8a97 233e 4c93 573e 38cf 243f
000000b0: f434 04bf f74f bc3e 8473 323f cb3f 783e
000000c0: dd02 a23d b5a5 12bf 433b d3be ab6f 233e
000000d0: 5071 5f3e 190e a93e 1ebf 31bd f70b 19bf
000000e0: e1a2 04bf 2549 15bf e64f 833d 69ed 11bf
000000f0: 8caa 293f 44c4 b53e 8f0a a5bd d92d e8be
00000100: cb87 fbbe d0d0 2a3f 9010 a23e 8902 653e
00000110: c04b 293f 1520 adbd 279c d6bd 819f 373e
00000120: ac4c cfbe 0614 56be c7bb 6cbe 7037 133f
00000130: 731a 183f bb61 7dbe de9d 323f 1cc4 d3be
00000140: 8b66 283f 0008 8bbe 4f69 cf3e 3749 b6be
00000150: 0539 813e 12af 79be bd68 b53e 587c 963e
00000160: 0953 11bf edb1 fabe 54a3 15bf 401c 91bd
00000170: c6af 19bd 450a 21bf a349 403e fd98 c6be
00000180: 3d68 9fbd 9a2a ccbe 0adb d0bd f1c3 debd
00000190: d19f 23bf 9a28 413c 499c debe 3dd1 2abf
000001a0: 68a1 22bf a3c5 8bbd fd38 11bf ee92 0ebf
000001b0: 1a0e 55be a954 b03e e8e7 2c3f d974 093f
000001c0: d391 083f 7f85 c2be 6dcb 1cbe 25c0 ccbd
000001d0: a85a 8cbe fc70 293f 3320 bf3e 4591 6fbe
000001e0: 33f4 0a3e ee75 dbbd 7a7a e73e 5001 d5be
000001f0: 4911 b03e 52ad 11bf 087b b2be 9536 bf3e

0.bias f4 [64]
-0.45324907 0.29284683 -0.23377213 -0.10021947 0.055690147 0.5435861 0.2844523 0.35117966
-0.24488422 -0.24271914 -0.4583983 -0.53300166 0.67692506 0.53488773 -0.35755724 0.1996191
-0.018416317 -0.65791935 0.69115055 0.6540548 -0.4323202 0.33526653 0.08210906 0.39680642
0.15233228 0.20766973 -0.14670913 -0.4497523 0.55104536 -0.2526501 -0.018884739 0.22057469
-0.27510563 -0.15382007 -0.2290811 -0.34104782 0.5723055 0.27224842 -0.48085314 -0.18592088
-0.48589534 0.15522078 -0.3422969 0.30132452 -0.6257676 -0.6099833 -0.15392897 0.45334202
-0.021376038 0.32785106 -0.29619136 -0.071838714 0.1274176 -0.53954077 0.28003418 0.67256236
0.018600332 -0.6045478 -0.30575213 -0.6639365 -0.53010744 0.2338083 0.23469658 -0.03684646
00000000: 4310 e8be 05f0 953e f661 6fbe de3f cdbd
00000010: 5a1b 643d 7528 0b3f bba3 913e d2cd b33e
00000020: eec2 7abe 5e8b 78be 2fb3 eabe cc72 08bf
00000030: f64a 2d3f 67ee 083f be11 b7be f368 4c3e
00000040: d1dd 96bc 676d 28bf 3eef 303f 2370 273f
00000050: 1359 ddbe 0ea8 ab3e cb28 a83d 362a cb3e
00000060: fefc 1b3e 60a7 543e eb3a 16be ef45 e6be
00000070: 4f11 0d3f 5b5b 81be 2bb4 9abc 55de 613e
00000080: a5da 8cbe 0283 1dbe 3c94 6abe d29d aebe
00000090: 9d82 123f 2564 8b3e 6232 f6be 0b62 3ebe
000000a0: 46c7 f8be 32f2 1e3e 8a41 afbe 3547 9a3e
000000b0: 4e32 20bf de27 1cbf 8e9f 1dbe 721c e83e
000000c0: cd1c afbc 18dc a73e 65a6 97be 2d20 93bd
000000d0: c279 023e 581f 0abf a460 8f3e 0c2d 2c3f
000000e0: b95f 983c a5c3 1abf 8b8b 9cbe bef7 29bf
000000f0: 1fb5 07bf 716b 6f3e 4d54 703e 50ec 16bd

2.weight f4 [64]
2.9830513 1.0 1.0 0.00449592 0.07828399 0.16145353 3.405009 1.7363573
0.4119504 -0.005207279 -1.0940294 1.1680603 1.0 1.0 1.0 1.0
2.4808006 1.0 1.2593372 1.0 0.913233 1.1060476 0.15284315 -0.81485975
1.0 2.2960656 -0.36409467 1.0 1.0 1.0 -0.1490685 1.0
1.7130773 1.4297943 1.0 0.8514406 1.0 2.1621914 1.0 1.0
1.0 1.0 1.0 0.6445871 1.0 1.0 1.0 1.0
1.0 1.0 -0.34244302 1.0 1.0 1.0 1.8014083 2.1863806
1.0 1.0 1.4027045 1.0 1.0 1.0 1.0 2.0036192
00000000: 50ea 3e40 0000 803f 0000 803f 8352 933b
00000010: 5b53 a03d 1354 253e abeb 5940 f540 de3f
00000020: 2aeb d23e d3a1 aabb 2809 8cbf 0083 953f
00000030: 0000 803f 0000 803f 0000 803f 0000 803f
00000040: 70c5 1e40 0000 803f f631 a13f 0000 803f
00000050: a3c9 693f f892 8d3f ea82 1c3e a69a 50bf
00000060: 0000 803f bdf2 1240 9e6a babe 0000 803f
00000070: 0000 803f 0000 803f 6aa5 18be 0000 803f
00000080: 1e46 db3f 8003 b73f 0000 803f 03f8 593f
00000090: 0000 803f 5861 0a40 0000 803f 0000 803f
000000a0: 0000 803f 0000 803f 0000 803f a903 253f
000000b0: 0000 803f 0000 803f 0000 803f 0000 803f
000000c0: 0000 803f 0000 803f b154 afbe 0000 803f
000000d0: 0000 803f 0000 803f 8c94 e63f a9ed 0b40
000000e0: 0000 803f 0000 803f d28b b33f 0000 803f
000000f0: 0000 803f 0000 803f 0000 803f 4c3b 0040

2.bias f4 [64]
0.13068728 -0.2021081 0.5488581 0.035462447 0.049619112 -0.15731694 0.2698651 -0.36666316
0.45655 -0.4290389 0.1714594 0.26414636 -0.3719457 -0.62941694 -0.7037444 0.500109
-0.7633661 -1.2050239 0.24667583 0.5273432 0.8934688 -0.53583515 -0.6838507 -0.742467
0.7141264 -0.20215946 0.22602725 -0.48378366 -0.013155624 -0.9454823 0.27111828 -0.22705029
0.031119375 -0.561424 -0.29705948 0.015114714 -0.46602526 -0.12009355 0.49798736 0.6154515
0.70295525 1.0286689 0.53273726 0.5760385 0.071057096 -0.31333545 -0.5699968 0.9671438
1.3390495 -0.11563591 0.7381738 -0.16426364 -0.44088724 -0.8451805 0.17897776 0.46008533
-0.5787854 -0.95906276 -0.24294852 1.1068565 0.13437739 -1.2389085 0.36640984 0.7246358
00000000: e3d2 053e 6df5 4ebe f781 0c3f 1241 113d
00000010: 693d 4b3d b117 21be c22b 8a3e 46bb bbbe
00000020: ecc0 e93e fdaa dbbe 0e93 2f3e 313e 873e
00000030: ab6f bebe 7821 21bf 9828 34bf 2507 003f
00000040: f66b 43bf 393e 9abf 9798 7c3e f7ff 063f
00000050: 5fba 643f 7e2c 09bf d710 2fbf 5112 3ebf
00000060: fdd0 363f e402 4fbe b073 673e 7eb2 f7be
00000070: b08a 57bc 210b 72bf 04d0 8a3e df7f 68be
00000080: 0fee fe3c 7cb9 0fbf 2e18 98be b5a3 773c
00000090: dd9a eebe 9bf3 f5bd 33f8 fe3e 3b8e 1d3f
000000a0: e0f4 333f 6cab 833f 7861 083f 4277 133f
000000b0: 6286 913d 816d a0be 4feb 11bf bc96 773f
000000c0: f965 ab3f 85d2 ecbd f5f8 3c3f ba34 28be
000000d0: f9bb e1be c05d 58bf f245 373e 4e90 eb3e
000000e0: 482b 14bf 2385 75bf 7fc7 78be 79ad 8d3f
000000f0: 3a9a 093e 8e94 9ebf 129a bb3e bb81 393f

2.running_mean f4 [64]
3.3815208e+06 0.0 0.0 4.7343065e+06 8.293831e+06 1.4643952e+07 6.080132e+06 1.5199372e+07
9.617293e+06 575573.1 1.4611362e+07 765554.25 0.0 0.0 0.0 0.0
1.4937112e+07 0.0 1.6685192e+07 0.0 3.7789815e+06 1.5228412e+07 8.700041e+06 5.734566e+06
0.0 3.7753842e+06 7.8103555e+06 0.0 0.0 0.0 8.397626e+06 0.0
1.5783382e+07 5.290136e+06 0.0 4.2417e+06 0.0 1.3602822e+07 0.0 0.0
0.0 0.0 0.0 6.952446e+06 0.0 0.0 0.0 0.0
0.0 0.0 278884.97 0.0 0.0 0.0 8.146486e+06 1.2700992e+07
0.0 0.0 1.5656402e+07 0.0 0.0 0.0 0.0 8.834058e+06
00000000: 4364 4e4a 0000 0000 0000 0000 c57a 904a
00000010: 8e1b fd4a f072 5f4b 088d b94a 8cec 674b
00000020: 8dbf 124b 5285 0c49 a2f3 5e4b 24e7 3a49
00000030: 0000 0000 0000 0000 0000 0000 0000 0000
00000040: 18ec 634b 0000 0000 8898 7e4b 0000 0000
00000050: 96a6 664a fc5d 684b 89c0 044b 4c01 af4a
00000060: 0000 0000 616e 664a 675a ee4a 0000 0000
00000070: 0000 0000 0000 0000 3a23 004b 0000 0000
00000080: d6d5 704b 3071 a14a 0000 0000 4872 814a
00000090: 0000 0000 0690 4f4b 0000 0000 0000 0000
000000a0: 0000 0000 0000 0000 0000 0000 fc2b d44a
000000b0: 0000 0000 0000 0000 0000 0000 0000 0000
000000c0: 0000 0000 0000 0000 9f2c 8848 0000 0000
000000d0: 0000 0000 0000 0000 6c9c f84a 40cd 414b
000000e0: 0000 0000 0000 0000 d2e5 6e4b 0000 0000
000000f0: 0000 0000 0000 0000 0000 0000 0acc 064b

2.running_var f4 [64]
4.2414826e+12 6e-45 6e-45 8.313924e+12 2.5515467e+13 7.95445e+13 1.3712596e+13 8.569293e+13
3.43083e+13 1.22883695e+11 7.9190825e+13 2.1739327e+11 6e-45 6e-45 6e-45 6e-45
8.276119e+13 6e-45 1.0326555e+14 6e-45 5.297157e+12 8.602059e+13 2.8076046e+13 1.2198159e+13
6e-45 5.287075e+12 2.2627396e+13 6e-45 6e-45 6e-45 2.6158119e+13 6e-45
9.240458e+13 1.0380705e+13 6e-45 6.6737983e+12 6e-45 6.8635935e+13 6e-45 6e-45
6e-45 6e-45 6e-45 1.792952e+13 6e-45 6e-45 6e-45 6e-45
6e-45 6e-45 2.884996e+10 6e-45 6e-45 6e-45 2.4616943e+13 5.983679e+13
6e-45 6e-45 9.092364e+13 6e-45 6e-45 6e-45 6e-45 2.8947706e+13
00000000: 04e3 7654 0400 0000 0400 0000 90f7 f154
00000010: 43a6 b955 cbb0 9056 678b 4755 e1df 9b56
00000020: 30a0 f955 83e3 e451 1a0c 9056 9876 4a52
00000030: 0400 0000 0400 0000 0400 0000 0400 0000
00000040: af8a 9656 0400 0000 c5d6 bb56 0400 0000
00000050: e52a 9a54 7578 9c56 b647 cc55 af81 3155
00000060: 0400 0000 c7df 9954 cfa2 a455 0400 0000
00000070: 0400 0000 0400 0000 4b53 be55 0400 0000
00000080: 3c15 a856 240f 1755 0400 0000 ac3b c254
00000090: 0400 0000 32b2 7956 0400 0000 0400 0000
000000a0: 0400 0000 0400 0000 0400 0000 5574 8255
000000b0: 0400 0000 0400 0000 0400 0000 0400 0000
000000c0: 0400 0000 0400 0000 eff2 d650 0400 0000
000000d0: 0400 0000 0400 0000 a11c b355 5aaf 5956
000000e0: 0400 0000 0400 0000 9f63 a556 0400 0000
000000f0: 0400 0000 0400 0000 0400 0000 4e9f d255

3.weight f4 [128, 64]
-0.039400738 -0.057434548 0.008575079 -0.059356872 -0.031968705 -0.024422588 -0.0071284566 0.02726781
-0.006876905 0.024619898 0.10908798 0.13259952 -0.023433406 0.041982066 -0.016278652 -0.007096255
0.03968191 0.056575354 -0.022582093 0.115028 -0.069688946 -0.07995348 0.07711338 -0.10377186
-0.021916201 0.049377948 0.13461001 0.055254 -0.015659878 -0.017044965 0.09818535 0.05155701
-0.008726442 0.14106557 -0.011291416 0.0557084 0.10493654 0.12960427 -0.12437545 0.0068532787
0.015845694 0.06874422 0.032430902 0.00065165054 0.0742806 -0.027804365 -0.064118534 -0.13185021
-0.06723716 0.036047664 -0.082123876 -0.11983955 -0.034276072 -0.10751599 0.0741943 0.05958136
0.12864421 0.0095154615 0.019938277 -0.120785125 0.100253396 -0.016815603 -0.046579786 0.10930491
-0.0049893106 -0.07917796 0.11804436 0.11433881 -0.1167951 0.020804925 0.05221298 0.12497412
-0.05175026 0.061103337 0.07957421 0.034212608 0.031272948 -0.08480469 0.101261444 -0.09002566
0.08865962 -0.031929653 -0.032521766 -0.07608949 -0.020158742 -0.008874672 -0.08637667 -0.08945101
0.10453879 0.09196925 -0.06804536 0.0258525 -0.0079629915 -0.109529175 -0.0123615535 -0.050677765
0.04475944 -0.053090557 -0.076959945 -0.07018578 -0.0030038557 0.040630776 0.009684577 0.11830554
0.03530903 -0.121247105 -0.118410386 0.108947404 0.0019274115 0.10095631 0.022117486 0.014386185
-0.07079381 0.043931376 0.06262676 0.06098934 0.06820687 -0.079676494 -0.00036359267 0.051256116
-0.04220152 -0.040914934 -0.07486535 0.015924318 -0.06297394 0.10770222 0.12211035 -0.11009089
-0.1602583 0.075862266 -0.09208037 -0.1258699 0.06705098 0.016376495 -0.20442066 0.004795773
-0.12981175 -0.1385281 -0.09291899 -0.04221245 0.039627016 0.12554361 -0.04163587 -0.0649468
-0.0027481492 0.08790083 0.015622932 0.09404797 -0.12851907 -0.08810079 -0.007000767 -0.07918833
0.012144212 -0.037042353 -0.014447635 -0.0844633 -0.008720805 -0.025775421 -0.009757762 0.071862124
-0.18120289 0.056477062 0.09758546 -0.010951249 0.0288498 -0.14668374 0.03391303 0.08355414
0.033178706 0.011439285 -0.02128668 -0.025962925 -0.03643046 -0.090551615 0.028777651 -0.15313585
-0.019452773 -0.1045485 -0.009519423 0.0365664 -0.033915482 0.11139562 -0.084188625 -0.23890118
-0.030810406 -0.0130800465 -0.0030145657 -0.078835115 -0.082691506 0.019196408 0.01080325 -0.11770727
-0.06869211 -0.07020797 -0.015589883 -0.18433051 -0.17403522 -0.14295131 -0.07413216 0.047276776
0.009724734 0.06434332 0.07236386 -0.1665639 -0.014930125 -0.0021902216 0.039818257 -0.07506211
-0.15803514 -0.06118187 -0.08707161 -0.039877344 -0.08326839 -0.014991293 -0.027316565 -0.098543905
0.11137777 0.014488214 -0.076764256 0.12930785 -0.07626367 0.12431248 0.0017680764 0.09089259
-0.04042737 -0.17514592 -0.11653327 -0.06902606 -0.037686378 0.004243518 0.05312975 0.020160679
-0.03537436 -0.08957617 -0.11770628 -0.12131396 0.05681503 -0.08833443 0.07797127 -0.08672263
-0.04446746 0.018878534 0.022602156 -0.08749202 0.07761993 -0.046946198 -0.16773495 -0.04487238
-0.014641828 0.002776631 -0.14309385 -0.024979224 0.11108054 0.025205366 0.0044099204 -0.18428187
00000000: ab62 21bd 7d40 6bbd 7d7e 0c3c 3120 73bd
00000010: 9ef1 02bd e111 c8bc d495 e9bb be60 df3c
00000020: a957 e1bb abaf c93c 8569 df3d 2bc8 073e
00000030: 6af7 bfbc 63f5 2b3d cf5a 85bc b487 e8bb
00000040: 8089 223d 8fbb 673d 15fe b8bc cd93 eb3d
00000050: 14b9 8ebd a6be a3bd 9fed 9d3d 5786 d4bd
00000060: 9b89 b3bc 8840 4a3d 35d7 093e 0552 623d
00000070: 2549 80bc e2a1 8bbc 6715 c93d 712d 533d
00000080: 5af9 0ebc 7e73 103e a2ff 38bc 7e2e 643d
00000090: f8e8 d63d fbb6 043e 8eb8 febd 7891 e03b
000000a0: d4ce 813c c5c9 8c3d 44d6 043d 87d3 2a3a
000000b0: 6d20 983d fbc5 e3bc 9450 83bd be03 07be
000000c0: a3b3 89bd b7a6 133d 9030 a8bd 706e f5bd
000000d0: 1165 0cbd 5831 dcbd 2ef3 973d 960b 743d
000000e0: 4fbb 033e bde6 1b3c 9955 a33c 315e f7bd
000000f0: a751 cd3d e0c0 89bc 72ca 3ebd 41db df3d
00000100: 5f7d a3bb 0e28 a2bd 3ec1 f13d 772a ea3d
00000110: 4532 efbd 176f aa3c 47dd 553d 6ef2 ff3d
00000120: 15f8 53bd 7e47 7a3d cef7 a23d 8522 0c3d
00000130: 1018 003d 15ae adbd 2962 cf3d 605f b8bd
00000140: 2d93 b53d abc8 02bd 8b35 05bd ced4 9bbd
00000150: f223 a5bc 1367 11bc 40e6 b0bd 1732 b7bd
00000160: 6f18 d63d 605a bc3d 5e5b 8bbd 9fc8 d33c
00000170: 3577 02bc d550 e0bd 1d88 4abc 7d93 4fbd
00000180: ad55 373d 7c75 59bd 2d9d 9dbd 90bd 8fbd
00000190: 56dc 44bb 756c 263d 0fac 1e3c 2d4a f23d
000001a0: 34a0 103d 6750 f8bd 2581 f2bd d11f df3d
000001b0: 33a1 fc3a 2fc2 ce3d bb2f b53c 09b4 6b3c
000001c0: 58fc 90bd 63f1 333d 7542 803d f5cf 793d
000001d0: 0bb0 8b3d 6e2d a3bd 95a0 beb9 eff1 513d
000001e0: 80db 2cbd 6b96 27bd 0153 99bd b773 823c
000001f0: 7bf8 80bd fb92 dc3d fe14 fa3d 5577 e1bd
00000200: c01a 24be ad5d 9b3d a294 bcbd 0ae4 00be
00000210: 0652 893d 0028 863c a653 51be dc25 9d3b
00000220: 5fed 04be 4fda 0dbe 504c bebd f6e6 2cbd
00000230: f04f 223d 818e 003e 608a 2abd d402 85bd
00000240: 4b1a 34bb 5a05 b43d 54f7 7f3c 399c c03d
00000250: 819a 03be 306e b4bd b166 e5bb 7e2d a2bd
00000260: 84f8 463c b9b9 17bd c6b5 6cbc 18fb acbd
00000270: b5e1 0ebc fa26 d3bc 05df 1fbc 732c 933d
00000280: 408d 39be 7e54 673d e3da c73d de6c 33bc
00000290: 6a56 ec3c 4334 16be 64e8 0a3d 6f1e ab3d
000002a0: 65e6 073d d76b 3b3c 6761 aebc 33b0 d4bc
000002b0: 1b38 15bd 2073 b9bd 1cbf eb3c a5cf 1cbe
000002c0: 6c5b 9fbc 861d d6bd 5bf7 1bbc a6c6 153d
000002d0: f6ea 0abd 6323 e43d 166b acbd 83a2 74be
000002e0: 1b66 fcbc b14d 56bc 0590 45bb 4e74 a1bd
000002f0: 2a5a a9bd c941 9d3c 1d00 313c 8210 f1bd
00000300: 73ae 8cbd 32c9 8fbd b56c 7fbc 23c1 3cbe
00000310: 4a36 32be d461 12be 9ad2 97bd 4ba5 413d
00000320: 7e54 1f3c 6ec6 833d 8133 943d ba8f 2abe
00000330: 7c9d 74bc d289 0fbb 7818 233d 2aba 99bd
00000340: f7d3 21be d799 7abd 9a52 b2bd 6d56 23bd
00000350: 9e88 aabd 0a9e 75bc fdc6 dfbc 63d1 c9bd
00000360: 071a e43d f95f 6d3c 9436 9dbd 4769 043e
00000370: 2130 9cbd 8b97 fe3d cdbe e73a e525 ba3d
00000380: 2c97 25bd 7459 33be ffa8 eebd 895d 8dbd
00000390: 085d 1abd 360d 8b3b 959e 593d 0228 a53c
000003a0: b4e4 10bd b673 b7bd fd0f f1bd 7473 f8bd
000003b0: e0b6 683d aee8 b4bd 67af 9f3d a29b b1bd
000003c0: 8323 36bd 28a7 9a3c 2828 b93c 042f b3bd
000003d0: 33f7 9e3d a84a 40bd b6c2 2bbe 1acc 37bd
000003e0: 47e4 6fbc 23f8 353b 3287 12be 3ba1 ccbc
000003f0: 327e e33d 7c7b ce3c 1881 903b 63b4 3cbe

3.bias f4 [128]
0.02212796 -0.033624478 -0.16453297 -0.17882463 -0.03203142 -0.09183172 -0.15040633 0.02340629
-0.104969926 -0.1959611 0.14868042 0.03256461 0.23038694 -0.15247951 -0.5513795 -0.18824291
0.22326204 -0.3488705 -0.08318318 -0.17019624 -0.2736147 -0.004662937 0.031077202 0.02022325
-0.23518418 -0.2005082 -0.069196135 0.4490088 0.06385636 0.13416691 0.12030455 0.6147256
-0.078397185 -0.036894917 0.010949226 -0.018762276 -0.066072136 0.15234643 -0.18733951 -0.10068515
-0.029361743 0.11245572 -0.096017905 -0.05433819 0.054763027 -1.4835653 -0.06134796 -0.66627777
0.12643151 -0.028851194 0.15952305 0.4479374 0.12824272 -0.17915188 -0.12111676 -0.11676278
-0.19109629 -0.08115404 -0.11196152 -0.19577621 0.007929233 -0.071321495 -0.117911026 0.06499431
-0.10163457 -0.09415033 -0.034899004 -0.037032597 -0.035130918 0.2720656 -0.13635375 0.19436106
-0.9600332 0.026614802 0.086772345 -0.020903014 -0.11970471 -0.14209192 0.77451116 -0.13297403
0.92845184 -0.10463509 -0.20524484 -0.10204015 -0.27100182 0.64664185 -0.069043055 -0.05143432
-0.042922504 0.3314666 -0.012963839 -0.07686117 0.15228316 -0.12485854 -1.5281483 -0.029549295
0.22952802 -0.0346897 -0.012084457 -0.045837387 0.21396632 -0.35019213 7.6935425 0.20147611
0.103440404 -0.04281059 -0.021507155 -0.01177069 0.033227354 0.114470236 -0.48762998 -0.052074727
-0.1872335 -0.09816789 -0.00037197195 -0.07834992 0.14660652 -0.106552154 -0.04823271 -0.06715579
-0.1159733 0.11179858 -0.120422915 0.1385886 -0.10018589 0.009537364 0.17924872 -0.08605049
00000000: b245 b53c d2b9 09bd 557b 28be ce1d 37be
00000010: 6133 03bd 4512 bcbd 1e04 1abe 8cbe bf3c
00000020: 79fa d6bd 07aa 48be ae3f 183e 7862 053d
00000030: 8eea 6b3e 9723 1cbe 3527 0dbf c0c2 40be
00000040: ce9e 643e 279f b2be f15b aabd ec47 2ebe
00000050: 3a17 8cbe 8dcb 98bb 9e95 fe3c 3bab a53c
00000060: 1fd4 70be 0652 4dbe b4b6 8dbd 7be4 e53e
00000070: 20c7 823d 0d63 093e 3b62 f63d a85e 1d3f
00000080: b48e a0bd 201f 17bd 6264 333c 58b3 99bc
00000090: d450 87bd b400 1c3e eed5 3fbe 0434 cebd
000000a0: 0a88 f0bc 2f4f e63d 09a5 c4bd b991 5ebd
000000b0: 324f 603d 78e5 bdbf 0048 7bbd 2e91 2abf
000000c0: 4377 013e 5759 ecbc 035a 233e 0d58 e53e
000000d0: 0f52 033e 9773 37be 100c f8bd 5321 efbd
000000e0: bfae 43be 1734 a6bd 154c e5bd 8f79 48be
000000f0: 9de9 013c 0111 92bd 567b f1bd bd1b 853d
00000100: c925 d0bd e3d1 c0bd 42f2 0ebd 7eaf 17bd
00000110: 70e5 0fbd 2f4c 8b3e 51a0 0bbe 9606 473e
00000120: bcc4 75bf 4907 da3c b3b5 b13d cc3c abbc
00000130: be27 f5bd 8b80 11be 5d46 463f 582a 08be
00000140: 05af 6d3f ec4a d6bd b42b 52be 6dfa d0bd
00000150: c0c0 8abe 528a 253f 7266 8dbd cbac 52bd
00000160: 82cf 2fbd fdb5 a93e 4866 54bc 6469 9dbd
00000170: 1ef0 1b3e d6b5 ffbd 5d9a c3bf 5d11 f2bc
00000180: 6509 6b3e c916 0ebd e3fd 45bc fcbf 3bbd
00000190: fd19 5b3e 624c b3be 8031 f640 c14f 4e3e
000001a0: 90d8 d33d 285a 2fbd c62f b0bc dad9 40bc
000001b0: 6819 083d 5f6f ea3d a3aa f9be 4f4c 55bd
000001c0: 23ba 3fbe 3f0c c9bd 3b05 c3b9 ec75 a0bd
000001d0: 0520 163e 0438 dabd aa8f 45bd fa88 89bd
000001e0: 6983 edbd a7f6 e43d 4aa0 f6bd 2cea 0d3e
000001f0: 432e cdbd 9b42 1c3c fa8c 373e 3d3b b0bd

5.weight f4 [128]
0.9133802 0.9078401 0.9975353 0.68360627 0.95392066 1.1855456 0.6046127 0.35481942
1.0684426 0.7910767 0.8865652 1.759066 1.3546399 1.0464145 0.6610654 1.633465
1.479627 0.7970411 0.73795235 1.5231457 0.48637998 1.1737953 1.444753 0.7605936
1.3124275 1.2520097 0.8969625 1.311894 1.4021415 1.1013978 1.1597079 1.1984406
1.2858347 1.1822053 1.2120975 1.2024764 0.698543 0.7500108 1.2518755 0.5413113
1.2019376 1.3204834 0.88336706 0.43095005 0.98490506 0.6601182 0.37125438 0.9492809
1.1993811 1.4889245 1.091534 1.0621892 0.92374253 0.74288404 1.0382594 0.6301244
0.87769836 1.0697801 1.2403716 0.2685916 1.0564239 1.1072258 1.2014464 0.91618353
0.50042355 0.62534606 1.3452308 1.5763491 1.1262728 0.8775248 0.98317116 0.99705637
1.063092 0.82350165 0.64778435 1.0041566 0.6569764 0.9254199 1.5373036 0.6810306
1.7041156 0.891145 0.9142168 0.9159715 1.1243263 0.6844499 1.2942725 0.53435093
0.7144558 0.93980366 1.189928 1.2919881 0.8343051 1.0 1.028644 1.010907
0.9375941 1.0013466 1.0045327 0.84927374 0.46005803 0.8902879 1.201504 1.4297769
0.97969323 0.6503339 0.8785636 1.4932735 0.92053944 1.1094376 1.0568953 0.85931784
0.84246016 1.1783271 0.6269422 1.1672899 1.415276 1.0880475 1.3083968 0.8127862
1.3042637 0.7324078 0.98153216 0.85190815 0.74138397 0.79091114 0.85928875 0.9955571
00000000: 49d3 693f 3568 683f 795e 7f3f d200 2f3f
00000010: 2534 743f f5bf 973f e6c7 1a3f e4aa b53e
00000020: bac2 883f 0184 4a3f f0f5 623f 1329 e13f
00000030: d764 ad3f e9f0 853f 953b 293f 6215 d13f
00000040: 6b64 bd3f e30a 4c3f 72ea 3c3f 70f6 c23f
00000050: cc06 f93e ed3e 963f abed b83f 43b6 423f
00000060: a0fd a73f db41 a03f 569f 653f 25ec a73f
00000070: 5f79 b33f 9afa 8c3f 4f71 943f 8066 993f
00000080: 3b96 a43f 8152 973f 0326 9b3f bfea 993f
00000090: b7d3 323f b500 403f 753d a03f 6193 0a3f
000000a0: 17d9 993f 9a05 a93f 5824 623f 7ca5 dc3e
000000b0: bd22 7c3f 82fd 283f 0e15 be3e 1304 733f
000000c0: 5285 993f 1495 be3f 63b7 8b3f d1f5 873f
000000d0: 647a 6c3f a62d 3e3f afe5 843f d54f 213f
000000e0: d7b0 603f 8eee 883f 7fc4 9e3f d784 893e
000000f0: e638 873f 93b9 8d3f ffc8 993f 018b 6a3f
00000100: c21b 003f ae16 203f 8630 ac3f cfc5 c93f
00000110: b529 903f 77a5 603f 1bb1 7b3f 163f 7f3f
00000120: 6613 883f 01d1 523f 32d5 253f 3488 803f
00000130: 9b2f 283f 52e8 6c3f 5dc6 c43f 0558 2e3f
00000140: 7620 da3f 1422 643f 1d0a 6a3f 1c7d 6a3f
00000150: ede9 8f3f 1c38 2f3f b9aa a53f 39cb 083f
00000160: 93e6 363f f996 703f 904f 983f de5f a53f
00000170: 0595 553f 0000 803f 9baa 833f 6765 813f
00000180: 2b06 703f 202c 803f 8794 803f 016a 593f
00000190: ba8c eb3e e8e9 633f e2ca 993f ee02 b73f
000001a0: 2dcd 7a3f 487c 263f 8be9 603f 9623 bf3f
000001b0: 79a8 6b3f 0d02 8e3f 5848 873f 41fc 5b3f
000001c0: 78ab 573f 6cd3 963f 497f 203f c169 953f
000001d0: c427 b53f 2445 8b3f 8c79 a73f c212 503f
000001e0: 1df2 a63f 147f 3b3f b145 7b3f a716 5a3f
000001f0: 57cb 3d3f 2779 4a3f 59fa 5b3f d5dc 7e3f

5.bias f4 [128]
-0.051509544 -0.04043953 0.3880572 0.29719523 -0.07364484 0.030094752 -0.12294065 -0.27617157
-0.0755975 -0.18798438 0.07920559 0.23312803 -0.16531642 0.030380161 0.12951918 0.14429739
0.19627546 0.1657722 -0.33560312 0.2938285 0.31938812 0.052530285 0.24164577 0.32408538
0.09504991 0.025548173 -0.06794868 -0.18990773 -0.33046654 -0.18607491 -0.0001597613 -0.18593197
-0.2803309 -0.28079244 0.119506 0.08345962 -0.17857076 -0.11168132 -0.18309672 -0.14946832
-0.15275897 -0.28286383 -0.03507852 -0.22845224 0.34845418 -0.12540473 -0.1308352 -0.012506846
0.12033847 0.09799899 0.06660095 -0.21151297 -0.1021759 0.10759581 -0.039905302 0.11117459
-0.1220287 -0.08116202 0.06456002 -0.26451743 0.09601081 0.015435108 -0.18340266 -0.019520046
-0.15000828 -0.25274804 0.2110846 0.30844262 -0.14662898 -0.05970716 -0.009062291 0.301837
0.27740288 0.07181128 0.007892789 0.25357968 -0.28872758 -0.08187784 -0.19394837 0.1369331
0.28948024 -0.17431402 0.04959419 0.16950078 0.022418993 0.041546896 -0.17238918 -0.32138512
-0.061482783 -0.041672103 -0.09946602 -0.04268859 0.29061365 -0.1644437 -0.36893576 -0.09524386
-0.21474087 0.15269336 0.25699615 0.28031394 -0.22982405 -0.2371739 0.01814128 -0.093655206
0.035715967 0.28394353 0.14842647 0.16202088 0.1553267 -0.2269544 0.19505253 0.04069917
0.08048952 -0.22543743 0.119319074 -0.092992246 0.13182834 -0.056109183 -0.15079631 0.15596087
-0.22764248 -0.1467704 -0.06410155 -0.025569834 0.17449787 0.047402058 -0.16966793 -0.043868177
00000000: acfb 52bd eca3 25bd 6faf c63e f929 983e
00000010: 1bd3 96bd 4589 f63c 4fc8 fbbd 5c66 8dbe
00000020: ddd2 9abd fa7e 40be 8a36 a23d 1db9 6e3e
00000030: b548 29be d1df f83c ada0 043e b2c2 133e
00000040: 6ffc 483e 30c0 293e 2cd4 abbe b070 963e
00000050: d786 a33e ff29 573d fd71 773e 85ee a53e
00000060: 87a9 c23d 674a d13c ad28 8bbd 2c77 42be
00000070: e932 a9be 6c8a 3ebe 9985 27b9 f364 3ebe
00000080: 8887 8fbe 07c4 8fbe 90bf f43d e1ec aa3d
00000090: 41db 36be 2db9 e4bd b57d 3bbe 390e 19be
000000a0: d96c 1cbe 87d3 90be 7fae 0fbd 62ef 69be
000000b0: 9668 b23e 196a 00be aaf9 05be 84e9 4cbc
000000c0: 0474 f63d b2b3 c83d 1466 883d db96 58be
000000d0: 9941 d1bd 315b dc3d be73 23bd 81af e33d
000000e0: 2fea f9bd 4638 a6bd 0b38 843d d46e 87be
000000f0: 51a1 c43d 89e3 7c3c e8cd 3bbe 81e8 9fbc
00000100: c59b 19be 3168 81be 9026 583e 31ec 9d3e
00000110: e825 16be 7f8f 74bd 017a 14bc 618a 9a3e
00000120: c007 8e3e cb11 933d c250 013c 32d5 813e
00000130: 1ad4 93be 92af a7bd 679a 46be 3138 0c3e
00000140: c136 943e 607f 32be 4723 4b3d 9d91 2d3e
00000150: 09a8 b73c 142d 2a3d ca86 30be 978c a4be
00000160: 5fd5 7bbd 5eb0 2abd d7b4 cbbd 3bda 2ebd
00000170: 50cb 943e ee63 28be 26e5 bcbe 360f c3bd
00000180: 08e5 5bbe a65b 1c3e 0095 833e 4f85 8f3e
00000190: ff56 6bbe b7dd 72be 069d 943c 4dce bfbd
000001a0: e84a 123d 0c61 913e 1cfd 173e cde8 253e
000001b0: f60d 1f3e bc66 68be dabb 473e 2cb4 263d
000001c0: b1d7 a43d 12d9 66be 8f5d f43d b872 bebd
000001d0: 02fe 063e bed2 65bd 596a 1abe 35b4 1f3e
000001e0: 1c1b 69be fb4a 16be ac47 83bd d477 d1bc
000001f0: 92af 323e a928 423d 6ebd 2dbe 1eaf 33bd

5.running_mean f4 [128]
0.34711695 0.2668032 0.82794434 0.7991142 6e-45 0.42484796 0.79802823 0.725161
0.32282034 0.7845593 226.91928 0.50324565 3.1272655 1.0358865 1.6653421 0.8037951
2.205887 2.8491716 0.36220497 0.63178676 3.0164032 0.3336165 0.37721044 1.6793206
1.1103029 2.8316267 6e-45 2.4297934 0.40818694 1.1452153 2.8753448 3.9784555
0.26752156 0.88940513 2.0550957 0.917967 6e-45 6.9315777 1.0669227 6e-45
0.3251887 1.979691 0.103844665 0.5148921 3.5426857 16.995108 0.55337286 7.758396
0.76229286 2.5212653 23.11663 2.3206456 0.5849333 3.9461617 0.047009762 0.46419835
1.5881279 0.45900708 0.3398148 6e-45 1.5243998 0.56426656 0.54461485 0.5779804
0.2644134 0.24302813 0.68368334 0.21664384 0.37236252 3.3503752 2.2231658 8.749267
6e-45 6e-45 0.7376577 1.9481256 0.13871351 0.9109224 3.576353 1.3230746
4.55454 0.21960975 0.39438194 6e-45 0.2974481 5.979296 0.5440691 0.104654595
1.5066745 2.1972158 0.20657322 0.11384793 0.5866773 0.0 6e-45 0.19716834
3.1712394 6e-45 0.21454857 0.24570955 0.3456042 3.3064394 113.75261 1.0536255
1.2179521 0.18477646 0.2446358 0.6794216 0.034615528 34.945686 1.1242131 0.66507244
4.421833 0.17526823 0.43241027 0.47582126 0.5195478 2.1821632 0.8951802 0.23184797
0.3416947 0.51103806 0.5141193 1.2055913 1.5457084 0.2607973 0.5170734 6e-45
00000000: 50b9 b13e 6e9a 883e 29f4 533f c092 4c3f
00000010: 0400 0000 ac85 d93e 944b 4c3f 27a4 393f
00000020: b548 a53e e1d8 483f 56eb 6243 b5d4 003f
00000030: 1e25 4840 ee97 843f ee29 d53f 84c5 4d3f
00000040: 412d 0d40 d458 3640 ee72 b93e c7bc 213f
00000050: c00c 4140 c8cf aa3e ba21 c13e faf3 d63f
00000060: 681e 8e3f 5f39 3540 0400 0000 bc81 1b40
00000070: e1fd d03e 6a96 923f a605 3840 049f 7e40
00000080: 96f8 883e 0eb0 633f b086 0340 e3ff 6a3f
00000090: 0400 0000 7ccf dd40 ec90 883f 0400 0000
000000a0: 227f a63e 8466 fd3f 83ac d43d f8cf 033f
000000b0: 5dbb 6240 fbf5 8741 d8a9 0d3f c844 f840
000000c0: a025 433f 695c 2140 dcee b841 7585 1440
000000d0: 30be 153f ea8d 7c40 4f8d 403d 68ab ed3e
000000e0: c647 cb3f fa02 eb3e 35fc ad3e 0400 0000
000000f0: 881f c33f c673 103f e16b 0b3f 86f6 133f
00000100: 3161 873e 5edc 783e df05 2f3f e2d7 5d3e
00000110: 4da6 be3e 8c6c 5640 5948 0e40 fffc 0b41
00000120: 0400 0000 0400 0000 23d7 3c3f 2e5c f93f
00000130: ea0a 0e3e 3632 693f f8e2 6440 825a a93f
00000140: cbbe 9140 61e1 603e 6eec c93e 0400 0000
00000150: 1e4b 983e 6556 bf40 1d48 0b3f 2655 d63d
00000160: b6da c03f 2f9f 0c40 ee87 533e 1b29 e93d
00000170: 7c30 163f 0000 0000 0400 0000 7fe6 493e
00000180: 96f5 4a40 0400 0000 9fb2 5b3e 499b 7b3e
00000190: 09f3 b03e b49c 5340 5681 e342 33dd 863f
000001a0: dbe5 9b3f 0a36 3d3e cf81 7a3e 93ee 2d3f
000001b0: 03c9 0d3d 62c8 0b42 37e6 8f3f 3042 2a3f
000001c0: a87f 8d40 8479 333e e164 dd3e d89e f33e
000001d0: 1601 053f 90a8 0b40 882a 653f 8e69 6d3e
000001e0: 9cf2 ae3e 64d3 023f 539d 033f d150 9a3f
000001f0: c6d9 c53f 3987 853e ec5e 043f 0400 0000

5.running_var f4 [128]
0.18442374 0.10895505 1.798667 1.6755857 6e-45 0.16430472 1.386967 1.3025383
0.14991258 0.6768293 78814.86 0.66452104 10.602401 2.8156145 4.2449474 1.6612161
10.66849 12.425176 0.20305575 0.4389731 23.874136 0.29204077 0.37335017 4.0021334
2.300848 12.272627 6e-45 7.1013937 0.25502563 0.78951913 12.654506 3.038297
0.057575047 0.49886692 11.081861 1.8926276 6e-45 73.541046 1.7423347 6e-45
0.16185868 5.998746 0.028295461 0.69563466 17.341558 653.23566 0.8034975 92.131744
1.4697402 10.626281 1051.5822 3.0203848 0.8580173 23.834995 0.003382528 0.24533425
5.53682 0.5528245 0.14821294 6e-45 3.37045 0.48734152 0.45398808 0.51131845
0.18344899 0.15497495 1.2264744 0.09997879 0.056001794 15.453302 12.96858 116.34874
6e-45 6e-45 0.046180233 5.8089747 0.050487787 2.1772661 7.091881 4.593221
32.283386 0.12654695 0.23806709 6e-45 0.23215118 52.866333 0.08271219 0.028738568
4.0869718 3.127077 0.06531507 0.019838806 0.526822 6e-45 6e-45 0.059503112
11.719258 6e-45 0.07045576 0.061518177 0.012495763 22.58984 19805.592 1.250079
3.6468222 0.052258674 0.091602065 0.4248019 0.0018340333 1869.1871 3.3162432 0.4175097
29.927486 0.047018796 0.18211041 0.3465397 0.5536646 7.2885327 1.226553 0.08227577
0.03812965 0.6852599 0.30050033 3.8137202 3.6569648 0.10410492 0.4314566 6e-45
00000000: 94d9 3c3e d323 df3d b83a e63f 9879 d63f
00000010: 0400 0000 7f3f 283e 2288 b13f 93b9 a63f
00000020: af82 193e af44 2d3f 6eef 9947 0d1e 2a3f
00000030: 6fa3 2941 0733 3440 9cd6 8740 bba2 d43f
00000040: 23b2 2a41 85cd 4641 d9ed 4f3e 15c1 e03e
00000050: 3bfe be41 5e86 953e c127 bf3e 7a11 8040
00000060: 1841 1340 ae5c 4441 0400 0000 9e3e e340
00000070: b892 823e ed1d 4a3f db78 4a41 7573 4240
00000080: d0d3 6b3d 7c6b ff3e 4d4f 3141 9f41 f23f
00000090: 0400 0000 0415 9342 d304 df3f 0400 0000
000000a0: 48be 253e baf5 bf40 e2cb e73c 1d15 323f
000000b0: 83bb 8a41 154f 2344 03b2 4d3f 7443 b842
000000c0: 7220 bc3f 3f05 2a41 a172 8344 fc4d 4140
000000d0: 06a7 5b3f 12ae be41 67ad 5d3b e738 7b3e
000000e0: a12d b140 e885 0d3f 22c5 173e 0400 0000
000000f0: 74b5 5740 d484 f93e 2071 e83e c4e5 023f
00000100: 0dda 3b3e c1b1 1e3e 1dfd 9c3f aec1 cc3d
00000110: 2362 653d ba40 7741 4e7f 4f41 8eb2 e842
00000120: 0400 0000 0400 0000 7c27 3d3d 1fe3 b940
00000130: 48cc 4e3d 5458 0b40 b0f0 e240 abfb 9240
00000140: 3022 0142 8695 013e dcc7 733e 0400 0000
00000150: 0ab9 6d3e 2077 5342 0265 a93d 256d eb3c
00000160: 79c8 8240 0822 4840 e8c3 853d fe84 a23c
00000170: cedd 063f 0400 0000 0400 0000 89b9 733d
00000180: 1582 3b41 0400 0000 1c4b 903d 7cfa 7b3d
00000190: 07bb 4c3c feb7 b441 2fbb 9a46 9702 a03f
000001a0: 8965 6940 310d 563d dd99 bb3d a27f d93e
000001b0: f263 f03a fda5 e944 543d 5440 d5c3 d53e
000001c0: 7e6b ef41 c896 403d 277b 3a3e a76d b13e
000001d0: f7bc 0d3f a93b e940 b0ff 9c3f 3380 a83d
000001e0: d62d 1c3d 316d 2f3f 2edb 993e fe13 7440
000001f0: b60b 6a40 f634 d53d e1e7 dc3e 0400 0000

6.weight f4 [256, 128]
-0.1800348 -0.17893772 0.08119525 0.14523026 -0.07464767 -0.12630853 0.15789002 0.16268675
-0.024854455 0.21290658 -0.050648686 0.10506961 -0.073526576 0.18062432 -0.029326303 0.19376832
-0.07446642 -0.14074425 0.16905953 0.068339884 -0.09152528 0.22213642 0.06265773 -0.08138326
-0.09211337 0.14177729 -0.15209667 0.19763616 -0.07326783 -0.106653295 0.21122177 -0.037770547
-0.12620711 -0.034938492 -0.032205038 0.20147492 0.2158361 0.15325873 -0.07347109 0.1410946
-0.1827095 0.18955529 0.15992391 0.082918786 0.033140782 -0.09749034 0.19621734 0.07320986
-0.088137925 0.14963837 0.13319637 0.1153625 0.21884601 -0.21898519 -0.05159016 -0.15217926
0.08909246 0.08425862 0.1738369 0.13166939 0.18490593 -0.18012425 -0.13787428 -0.11339601
0.07943077 0.21872857 0.12616129 0.053876128 -0.17815956 -0.13041507 -0.08381184 -0.03701778
0.08230239 -0.16611896 0.16309689 0.07347065 0.1873069 0.06510924 0.19485834 -0.14399707
-0.03627317 0.124602355 -0.1208605 -0.17778306 0.22129977 0.06580392 -0.022905122 0.21937183
0.13019626 0.09305506 -0.045073975 -0.1431911 0.17437539 -0.062471855 0.21937463 -0.1471268
-0.060834624 -0.03474107 -0.1263873 -0.12093391 0.1933148 0.1682721 0.015633414 -0.106799155
0.11229206 -0.16505903 -0.10636317 0.22157896 -0.061620664 -0.18791126 -0.096077085 -0.05886943
-0.037401516 -0.018930899 -0.10751785 -0.06257747 0.2321819 -0.21343087 -0.11331538 -0.15154116
-0.08815378 0.08710863 -0.05193262 0.10578332 -0.1282633 -0.05055768 0.19129297 0.07204739
0.13781118 0.038381774 0.022550913 0.085412234 0.054722227 0.121799104 0.05378417 0.14994906
0.14674385 0.036596466 0.09037638 0.1693449 0.12305227 0.04483827 0.06419233 0.044635706
0.12553869 0.12774351 0.09049804 0.026714638 -0.017051835 0.0021201398 0.11333478 0.13289063
0.040756326 0.04414215 -0.013145615 -0.08579463 0.02563377 0.034668665 0.10282407 0.055972256
0.042529717 0.019257788 0.11409344 0.12434238 0.05299213 -0.060401086 0.0067816484 0.062061604
0.055993486 0.089767136 0.07985042 0.13610967 0.049851403 0.11436275 0.12307437 0.038980912
0.0048952075 0.14755058 -0.06156013 0.09535409 0.13988256 0.059668742 -0.016165685 0.011291591
0.16677563 0.13681145 0.09070544 0.1274783 0.055352293 0.06176826 -0.00018330374 0.09621191
0.17481707 0.06853474 0.057801764 0.067406066 -0.00208476 -0.023142084 0.17035823 -0.06862131
0.043910097 0.08043242 0.039156597 -0.035279978 0.14660956 0.056719903 -0.013734583 0.1651824
0.07905716 0.18389991 -0.0039021617 0.12150492 0.12586099 -0.02235152 0.12573078 0.17860682
0.08045454 0.0032573803 -0.02218875 0.0113435825 -0.0076496266 0.019060504 -0.07464578 0.086308286
0.037233613 -0.030538198 -0.015011257 0.04796996 0.06425982 0.0454199 0.034745395 0.11162907
0.099439345 0.09759604 0.11974714 0.18065727 0.08188413 0.04780973 0.1299381 0.03238733
0.14009309 0.092710294 0.045206193 0.1265674 0.05889586 0.13802195 0.12872826 0.042857155
0.057693336 0.028026458 0.04935414 0.057886586 0.10842472 0.0754759 0.15206398 0.15800282
00000000: 0b5b 38be 733b 37be b249 a63d 3eb7 143e
00000010: e1e0 98bd 0657 01be ecad 213e 5b97 263e
00000020: 929b cbbc 2f04 5a3e ff74 4fbd bc2e d73d
00000030: 1a95 96bd 95f5 383e b73d f0bc 346b 463e
00000040: da81 98bd 431f 10be f11d 2d3e c8f5 8b3d
00000050: 9b71 bbbd bb77 633e b252 803d 44ac a6bd
00000060: efa5 bcbd 112e 113e 3bbf 1bbe 2261 4a3e
00000070: 720d 96bd 0b6d dabd 854a 583e 4ab5 1abd
00000080: 703c 01be aa1b 0fbd 6ee9 03bd 714f 4e3e
00000090: 2304 5d3e dbef 1c3e 0378 96bd 1a7b 103e
000000a0: 3318 3bbe c81a 423e 18c3 233e 53d1 a93d
000000b0: a1be 073d 04a9 c7bd 33ed 483e 0def 953d
000000c0: a881 b4bd cd3a 193e a164 083e 2d43 ec3d
000000d0: 2b19 603e a73d 60be 3450 53bd e1d4 1bbe
000000e0: 1c76 b63d c98f ac3d 4d02 323e 57d4 063e
000000f0: fb57 3d3e 7e72 38be ea2e 0dbe 2b3c e8bd
00000100: 99ac a23d 62fa 5f3e 6d30 013e 37ad 5c3d
00000110: 766f 36be 878b 05be 8ba5 abbd f59f 17bd
00000120: 288e a83d 171b 2abe df02 273e c877 963d
00000130: 61cd 3f3e fe57 853d f288 473e f873 13be
00000140: 2d93 14bd 852f ff3d b685 f7bd c30c 36be
00000150: 689c 623e 35c4 863d 86a3 bbbc 02a3 603e
00000160: 2b52 053e a793 be3d 7d9f 38bd b0a0 12be
00000170: 768f 323e 7de2 7fbd bea3 603e 68a8 16be
00000180: ba2d 79bd a74c 0ebd ac6b 01be 33ac f7bd
00000190: 51f4 453e 854f 2c3e a511 803c 84b9 dabd
000001a0: 61f9 e53d 3c05 29be efd4 d9bd 98e5 623e
000001b0: f365 7cbd cf6b 40be 10c4 c4bd 1221 71bd
000001c0: 5532 19bd f914 9bbc 5232 dcbd 9e28 80bd
000001d0: 18c1 6d3e 9f8d 5abe e511 e8bd 9b2d 1bbe
000001e0: f889 b4bd 0266 b23d 4db7 54bd eda4 d83d
000001f0: 7457 03be 9215 4fbd 4ee2 433e 958d 933d
00000200: 601e 0d3e 3536 1d3d b1bc b83c 9cec ae3d
00000210: 6a24 603d cf71 f93d ca4c 5c3d 3f8c 193e
00000220: 0544 163e 2de6 153d 4017 b93d c068 2d3e
00000230: d402 fc3d 55a8 373d 4577 833d eed3 363d
00000240: 378d 003e 32cf 023e 0957 b93d a8d8 da3c
00000250: 4ab0 8bbc 0bf2 0a3b 111c e83d 7b14 083e
00000260: 1bf0 263d 66ce 343d b560 57bc 18b5 afbd
00000270: e9fd d13c bb00 0e3d 6d95 d23d 2a43 653d
00000280: a433 2e3d 82c2 9d3c d2a9 e93d 38a7 fe3d
00000290: 470e 593d 2167 77bd 9738 de3b 4f34 7e3d
000002a0: 6d59 653d d5d7 b73d 9e88 a33d 5560 0b3e
000002b0: fc30 4c3d 0437 ea3d 6a0e fc3d 73aa 1f3d
000002c0: fa67 a03b 8017 173e 7a26 7cbd 0149 c33d
000002d0: 603d 0f3e 3667 743d e66d 84bc 5e00 393c
000002e0: 3bc7 2a3e 4d18 0c3e c6c3 b93d ac89 023e
000002f0: 16b9 623d b700 7d3d 3935 40b9 c00a c53d
00000300: 3f03 333e f15b 8c3d 8bc1 6c3d 310c 8a3d
00000310: 78a0 08bb 7894 bdbc 6372 2e3e 5489 8cbd
00000320: 13db 333d c1b9 a43d ab62 203d bd81 10bd
00000330: d120 163e 2153 683d 0407 61bc 9325 293e
00000340: b8e8 a13d 4250 3c3e 69bb 7fbb 92d7 f83d
00000350: b4e1 003e 891a b7bc 92bf 003e b5e4 363e
00000360: 5ac5 a43d c679 553b 2ec5 b5bc 6fda 393c
00000370: b8a9 fabb c624 9c3c e3df 98bd 66c2 b03d
00000380: 4682 183d 3e2b fabc c6f1 75bc 267c 443d
00000390: a79a 833d 380a 3a3d 3051 0e3d c89d e43d
000003a0: dba6 cb3d 6fe0 c73d fd3d f53d 38fe 383e
000003b0: deb2 a73d 23d4 433d 7e0e 053e 94a8 043d
000003c0: 9074 0f3e e5de bd3d 212a 393d e29a 013e
000003d0: c93c 713d a055 0d3e 57d1 033e fc8a 2f3d
000003e0: d94f 6c3d be97 e53c 9127 4a3d 7c1a 6d3d
000003f0: c80d de3d 1c93 9a3d a9b6 1b3e 7ecb 213e

6.bias f4 [256]
-0.06155794 -0.15211092 -0.053553168 0.07019988 0.081697635 0.046534207 -0.0044376636 -0.058381665
0.020409714 0.21915689 0.18954872 0.25292778 -0.103521675 0.077710204 0.03034798 0.01717452
-0.018881485 -0.02415489 -0.06650705 0.0735565 -0.016612023 -0.039962854 -0.41107222 -0.047520977
-0.009963484 -0.0678232 0.17429243 0.020611446 0.10495404 -0.034494914 -0.08237394 0.10864216
0.009723851 0.084983766 0.032055225 0.014071808 -0.08034763 -0.012682748 -0.08794112 0.09007449
-0.0840229 0.043602068 -0.18855946 0.06841109 0.037833937 0.0129794935 -0.115584254 -0.1655079
-0.15169688 0.09186635 0.0378783 0.055239066 -0.0898027 0.06513665 0.13000889 0.14958529
0.001977246 -0.117469445 -0.035243213 -0.15009375 0.01304556 0.09229085 -0.076343894 0.08196447
-0.056762464 -0.08423368 0.12229764 -0.061017808 0.058853507 -0.06794086 0.012454801 0.080864206
-0.0012936259 -3.5521352 -0.020537479 0.12729673 -0.022641772 0.0039267177 -0.023124916 -0.09774658
0.19340177 -0.003577243 0.08496355 0.0052186325 -0.02194989 0.06543992 -0.0069082 -0.08514721
-0.061900403 0.06884671 -0.058994334 0.04904736 -0.041917607 -0.12109328 -0.24456444 -0.06802105
-0.010512657 0.5757025 0.0864328 0.19880983 0.05330698 0.03764908 -0.040095385 -0.023588974
-0.094908826 0.16831893 -0.06868906 0.04481509 -0.04484769 0.17761098 0.026850367 -0.28985056
0.0661486 -1.5273972e-06 0.078950316 0.039024215 0.087665915 -0.054392647 0.041689876 0.1297669
-0.059556216 -0.19261956 -0.017164726 0.03442274 0.121511824 0.024014413 0.05351656 0.17719415
-0.03209219 -0.01899871 0.049576834 -0.014371685 -0.0487295 0.058258485 -0.1656852 -0.008248077
0.04873037 0.009539581 -0.017416513 0.07680023 -0.022156928 -0.07364363 -0.124992125 -0.09921279
-0.01367104 0.080154 -0.028739367 0.10860904 0.0026905695 0.083222285 -0.048693907 0.096568294
0.14796737 0.060239177 0.03063978 -0.0017975196 -0.07148082 -0.06357074 0.03427314 -0.023326095
-0.015774572 0.008878271 0.23911037 -0.042777058 0.042336803 -0.03738891 -0.16328496 -0.065986484
-0.051349662 0.14037307 0.021394819 -0.059216645 -0.084204696 -0.008067802 -0.0080581065 -0.0798697
-0.07053756 0.08909277 -0.0722613 0.067731515 0.16419256 -0.028988928 0.07673605 0.14774078
0.041010506 -0.28781086 0.06874263 0.040030725 0.24008225 0.026860816 0.046985917 -0.021611826
0.015429195 -0.08211042 -0.06753136 -0.18814304 -0.14355455 0.097305745 0.041451313 0.047018047
0.002856765 0.08085024 0.04623047 -0.04440954 0.06270865 0.047644358 0.12663522 -0.06289527
-0.1750544 0.116532095 0.029266074 -0.050646544 0.06217866 -0.10080648 0.03539779 0.01596113
-0.033194177 -0.0034163124 -0.10722522 -0.02176249 0.005287382 -0.08126299 -0.0032708943 0.07817773
0.041538488 0.045465782 0.010342305 0.0037793485 0.05746429 0.0283953 -0.07881642 0.07635134
0.02898907 -0.07430622 -0.08546706 -0.05191482 -0.103824414 0.03763425 0.034224097 0.033919018
-0.024660934 0.03949492 -0.013984177 0.09235079 0.006506327 0.07906463 0.040432 0.17537892
-0.051713023 -0.20898809 -0.089999035 -0.02308525 0.001970292 -0.06705834 -0.08484961 0.06645407
00000000: 2e24 7cbd f7c2 1bbe 915a 5bbd f4c4 8f3d
00000010: 1751 a73d a79a 3e3d d269 91bb 9d21 6fbd
00000020: 4632 a73c aa6a 603e 0f19 423e c07f 813e
00000030: 2c03 d4bd 8726 9f3d 549c f83c 94b1 8c3c
00000040: 58ad 9abc 7ae0 c5bc d934 88bd caa4 963d
00000050: f015 88bc 17b0 23bd 0f78 d2be 5ba5 42bd
00000060: e13d 23bc e4e6 8abd b779 323e 56d9 a83c
00000070: 25f2 d63d 8a4a 0dbd abb3 a8bd c87f de3d
00000080: ca50 1f3c f80b ae3d 574c 033d 718d 663c
00000090: 4c8d a4bd 4dcb 4fbc 791a b4bd f978 b83d
000000a0: 3314 acbd 1598 323d bb15 41be 1d1b 8c3d
000000b0: c2f7 1a3d f1a7 543c 70b7 ecbd e77a 29be
000000c0: 6d56 1bbe 6d24 bc3d 4726 1b3d 5c42 623d
000000d0: 7aea b7bd 5d66 853d 0d21 053e e32c 193e
000000e0: af94 013b d293 f0bd 305b 10bd 2db2 19be
000000f0: 0bbd 553c fc02 bd3d 305a 9cbd fddc a73d
00000100: c27f 68bd b582 acbd 2f77 fa3d cfed 79bd
00000110: 6010 713d 9424 8bbd 390f 4c3c 229c a53d
00000120: e28e a9ba 2f56 63c0 373e a8bc 135a 023e
00000130: 3d7b b9bc b2ab 803b 7770 bdbc 5c2f c8bd
00000140: 1d0b 463e 2e70 6abb 5f01 ae3d 1001 ab3b
00000150: 41d0 b3bc 5d05 863d 2f5e e2bb a961 aebd
00000160: 478b 7dbd 81ff 8c3d 0ba4 71bd e2e5 483d
00000170: ccb1 2bbd c1ff f7bd 1a6f 7abe 9f4e 8bbd
00000180: 483d 2cbc 3d61 133f ae03 b13d ce94 4b3e
00000190: 6b58 5a3d ec35 1a3d 0f3b 24bd aa3d c1bc
000001a0: 8f5f c2bd cc5b 2c3e daac 8cbd 0790 373d
000001b0: 36b2 37bd a7df 353e 4df5 db3c 4b67 94be
000001c0: eb78 873d f800 cdb5 b4b0 a13d dbd7 1f3d
000001d0: 308a b33d d3ca 5ebd 01c3 2a3d 9de1 043e
000001e0: 38f1 73bd 103e 45be 0a9d 8cbc dcfe 0c3d
000001f0: 31db f83d e0b9 c43c 2e34 5b3d 6272 353e
00000200: 1a73 03bd 2fa3 9bbc 1411 4b3d 3777 6bbc
00000210: 9698 47bd 73a0 6e3d 62a9 29be f122 07bc
00000220: 7f99 473d e74b 1c3c 13ad 8ebc 7049 9d3d
00000230: 7282 b5bc 79d2 96bd dffb ffbd 1330 cbbd
00000240: 7ffc 5fbc c827 a43d d26e ebbc 6b6e de3d
00000250: 4454 303b 7270 aa3d 4373 47bd 99c5 c53d
00000260: c284 173e 5bbd 763d 4700 fb3c c09a ebba
00000270: 8964 92bd 6031 82bd fe61 0c3d 5e16 bfbc
00000280: ad39 81bc 2b76 113c 59d9 743e ff36 2fbd
00000290: 5b69 2d3d 1d25 19bd 2c34 27be ec23 87bd
000002a0: 0654 52bd f5bd 0f3e 3044 af3c 278d 72bd
000002b0: 8373 acbd d02e 04bc 2606 04bc ba92 a3bd
000002c0: ff75 90bd 4576 b63d bcfd 93bd d2b6 8a3d
000002d0: 1822 283e 307a edbc ca27 9d3d 5c49 173e
000002e0: a2fa 273d f25b 93be f0c8 8c3d 42f7 233d
000002f0: 1fd8 753e 370b dc3c 4e74 403d 490b b1bc
00000300: bcca 7c3c 8229 a8bd e24d 8abd 92a8 40be
00000310: f7ff 12be 3c48 c73d dac8 293d ff95 403d
00000320: 9038 3b3b d094 a53d 295c 3d3d c7e6 35bd
00000330: 656d 803d bb26 433d aaac 013e 3ccf 80bd
00000340: 7641 33be 61a8 ee3d 68bf ef3c c072 4fbd
00000350: 0daf 7e3d a173 cebd 46fd 103d eac0 823c
00000360: 9ef6 07bd 36e4 5fbb e598 dbbd 4047 b2bc
00000370: c641 ad3b 366d a6bd 805c 56bb a51b a03d
00000380: 4324 2a3d 543a 3a3d c572 293c f2ae 773b
00000390: ad5f 6b3d 439d e83c 816a a1bd 175e 9c3d
000003a0: 7c7a ed3c dc2d 98bd 5b09 afbd a2a4 54bd
000003b0: e5a1 d4bd 5f26 1a3d 912e 0c3d abee 0a3d
000003c0: ba05 cabc 6dc5 213d e41d 65bc 6922 bd3d
000003d0: 0733 d53b a3ec a13d 069c 253d 8896 333e
000003e0: 09d1 53bd f900 56be 6a51 b8bd 471d bdbc
000003f0: 0420 013b e255 89bd a2c5 adbd 1219 883d

8.weight f4 [256]
1.0024364 0.8944829 1.0985935 0.9854101 0.93669176 0.9232689 0.9113192 1.2201804
0.85915285 0.95058006 0.9066486 0.9533096 1.160043 1.0025985 0.9990228 0.9691798
0.8694429 1.0097488 1.0432321 0.9577395 0.96153307 0.8872579 0.90241224 0.99618757
0.88899666 1.0679094 0.9720772 0.9603904 1.0237607 1.0468524 1.0944083 1.0783509
0.9031224 1.1178637 1.2651633 1.0060406 1.0695387 1.0073345 1.0517942 0.9854862
0.8856666 0.95921093 0.9722916 0.9192553 0.8771168 1.0095634 0.92409956 1.003195
0.99605536 1.0453664 0.96000063 1.1739699 0.919513 0.90775734 1.1500607 1.0857283
1.0027903 0.9943663 0.9075357 0.91040224 0.90525764 1.0349859 0.92448974 0.97266996
1.0220289 0.95220214 1.1858824 1.040139 1.0688863 0.9718938 0.95118797 0.9261449
1.0209562 1.095267 0.94442856 0.9100131 0.81809217 0.9547939 1.0587476 0.9720602
1.0365359 0.9866736 1.100792 0.9237664 0.98253536 1.0330852 0.96288073 1.0316062
0.9754621 1.0959537 1.0483053 1.0387436 1.0193876 0.99500227 0.9137968 0.9962207
1.0206503 0.88735473 0.9793787 0.9354438 1.067457 1.0469998 0.9867006 1.0731157
0.90569514 1.0306953 1.0162044 0.9850985 0.9495401 1.0249116 0.88596946 0.8011841
0.89888215 1.1228482 1.1650437 1.0109252 1.0022336 1.0064323 1.0043013 0.98824954
1.0946425 0.9787713 0.99469066 1.0475403 1.0254749 1.1120243 0.9704305 0.9627362
1.0522816 0.9807638 1.0175111 0.9288721 0.9301942 0.9598691 1.0406564 0.9641129
0.96699893 0.98772436 0.9375946 1.1798592 1.0479575 0.92405564 0.9637768 1.0342097
0.9790915 0.92802197 0.95716727 0.93644106 1.0241705 1.0074774 1.0986073 1.0982088
1.0975387 1.0052526 0.9847915 1.0863843 1.0511777 0.94696134 0.91153055 1.0530379
1.0558794 0.98965305 1.0459363 1.0901952 1.1495216 0.8762115 0.96632 1.1748153
1.0144421 0.9629771 1.0190938 1.00243 0.994102 1.0885888 1.154075 0.99058807
0.9613274 1.0066521 0.92814183 0.9917174 0.90573734 1.1043681 0.931328 0.89944
1.0686564 1.0016948 1.0495499 1.0386643 0.9467933 1.0662293 1.0385926 1.0620323
0.833611 1.0181139 1.0296955 1.0409418 1.1379509 0.98467964 0.9417715 1.0684601
1.0557568 1.0318959 0.9057552 1.0299813 0.84726965 1.0153464 0.9332709 0.9189702
1.0744756 1.0705094 0.97852373 0.9296317 1.0703475 1.0353839 0.9574862 1.1009192
1.0226653 1.0702255 1.0135831 0.7431119 1.1129563 1.0381047 0.93463624 0.9447037
0.9765935 1.0270486 0.92744297 0.8576494 1.0094875 1.1311095 1.214108 0.8649689
0.9103015 1.0463756 0.9994285 0.92103785 1.0155431 0.8735763 1.1887959 0.9650946
0.9562141 0.8532666 1.0462493 1.018586 0.98797005 0.84101623 1.0527093 1.0303481
1.0582784 1.0255841 1.0226407 1.0943726 1.1157953 0.89265823 1.0432366 1.1219217
00000000: d64f 803f d5fc 643f b69e 8c3f d643 7c3f
00000010: 08cb 6f3f 5a5b 6c3f 374c 693f df2e 9c3f
00000020: 71f1 5b3f 3759 733f 1f1a 683f 190c 743f
00000030: 4a7c 943f 2655 803f f5bf 7f3f 2b1c 783f
00000040: cf93 5e3f 733f 813f a188 853f 6a2e 753f
00000050: 0827 763f 5523 633f 7d04 673f 2606 7f3f
00000060: 4995 633f 41b1 883f 0dda 783f 25dc 753f
00000070: 970a 833f 42ff 853f 9215 8c3f 6707 8a3f
00000080: 0833 673f 2816 8f3f dff0 a13f f0c5 803f
00000090: a5e6 883f 56f0 803f 31a1 863f d348 7c3f
000000a0: 0cbb 623f d98e 753f 1ae8 783f 5154 6b3f
000000b0: ba8a 603f 6039 813f ca91 6c3f b268 803f
000000c0: 7cfd 7e3f 91ce 853f 9ac2 753f a544 963f
000000d0: 3465 6b3f c962 683f 3035 933f 25f9 8a3f
000000e0: 6f5b 803f ca8e 7e3f 4254 683f 1f10 693f
000000f0: f7be 673f 6b7a 843f 5cab 6c3f e600 793f
00000100: d8d1 823f 85c3 733f ffca 973f 4623 853f
00000110: 44d1 883f 08ce 783f 0e81 733f d517 6d3f
00000120: b1ae 823f b631 8c3f 12c6 713f 9ef6 683f
00000130: 7d6e 513f 5f6d 743f 0b85 873f f0d8 783f
00000140: 35ad 843f a496 7c3f c1e6 8c3f f47b 6c3f
00000150: 7087 7b3f 233c 843f 5a7f 763f ac0b 843f
00000160: e2b7 793f 3648 8c3f de2e 863f 8df5 843f
00000170: 4b7b 823f 78b8 7e3f 96ee 693f 5208 7f3f
00000180: aba4 823f ae29 633f 90b8 7a3f 3f79 6f3f
00000190: 6ea2 883f 1704 863f 6998 7c3f db5b 893f
000001a0: a3db 673f d3ed 833f fc12 823f 6a2f 7c3f
000001b0: 0f15 733f 4e30 833f e5ce 623f 671a 4d3f
000001c0: 241d 663f 7db9 8f3f 2720 953f ff65 813f
000001d0: 3149 803f c6d2 803f f28c 803f ecfd 7c3f
000001e0: 3f1d 8c3f c290 7a3f 0ca4 7e3f cd15 863f
000001f0: c342 833f d056 8e3f 226e 783f e175 763f
00000200: 2ab1 863f 5613 7b3f ce3d 823f 90ca 6d3f
00000210: 3521 6e3f fbb9 753f 3b34 853f 1ad0 763f
00000220: 3e8d 773f 81db 7c3f 3306 703f a005 973f
00000230: 7923 863f e98e 6c3f 14ba 763f fc60 843f
00000240: bea5 7a3f d992 6d3f ea08 753f 9aba 6f3f
00000250: 0518 833f 05f5 803f 2a9f 8c3f 1b92 8c3f
00000260: 267c 8c3f 1eac 803f 4c1b 7c3f a40e 8b3f
00000270: fe8c 863f 0f6c 723f 115a 693f f2c9 863f
00000280: 0e27 873f e759 7d3f 3ee1 853f 848b 8b3f
00000290: 8623 933f 664f 603f bf60 773f 5960 963f
000002a0: 3dd9 813f ab85 763f aa71 823f a04f 803f
000002b0: 787d 7e3f e156 8b3f bbb8 933f 2e97 7d3f
000002c0: 8d19 763f fad9 803f b49a 6d3f 31e1 7d3f
000002d0: 67de 673f ef5b 8d3f 836b 6e3f b341 663f
000002e0: bcc9 883f 8937 803f a757 863f f4f2 843f
000002f0: 0c61 723f 347a 883f 9af0 843f adf0 873f
00000300: 8867 553f 8e51 823f 10cd 833f 953d 853f
00000310: 60a8 913f f713 7c3f f017 713f 4dc3 883f
00000320: 0a23 873f 2a15 843f 93df 673f 6dd6 833f
00000330: aae6 583f dff6 813f d7ea 6e3f a241 6b3f
00000340: 6b88 893f 7406 893f 8880 7a3f 58fc 6d3f
00000350: 2601 893f 7687 843f d11d 753f ecea 8c3f
00000360: b2e6 823f 26fd 883f 17bd 813f 953c 3e3f
00000370: 5a75 8e3f 9de0 843f 5244 6f3f 1ad8 713f
00000380: 0802 7a3f 5476 833f e76c 6d3f e98e 5b3f
00000390: e336 813f 32c8 903f e467 9b3f 9a6e 5d3f
000003a0: 8509 693f a3ef 853f 8cda 7f3f 23c9 6b3f
000003b0: 51fd 813f b2a2 5f3f 772a 983f 7110 773f
000003c0: 72ca 743f ae6f 5a3f 7feb 853f 0761 823f
000003d0: 9beb 7c3f d74c 573f 2ebf 863f 72e2 833f
000003e0: ab75 873f 5746 833f e4e5 823f 6714 8c3f
000003f0: 61d2 8e3f 4085 643f c788 853f 219b 8f3f
